Demand_Forecasting/output/model_lstm.pt (torch, 205227 bytes, 9 tensors)

lstm.weight_ih_l0 f4 [256, 1]
0.16721803 0.2376709 0.23753825 0.2171961 0.08135895 0.23993957 0.22617504 -0.086435184
0.13473387 0.22260141 0.08586167 0.2549966 0.13654938 0.23602514 0.13296553 0.07854476
0.08271669 0.24962632 0.25532126 0.26498336 -0.09087654 0.25470415 0.124070205 0.08383063
0.24610727 0.25745082 0.25991255 0.2387466 0.080865785 0.26193562 0.117986925 0.22399339
0.25966617 0.11842391 0.07683457 -0.02116325 0.25166637 -0.06738444 0.07865893 0.12915966
0.24097669 0.07421813 0.24537571 0.08170977 0.16524254 0.07722384 -0.36150217 0.15045743
0.08141231 0.17843996 0.25095245 0.25644767 0.2555833 0.45069522 0.39298418 0.2555566
0.12502356 0.25219163 0.082257256 0.25443196 0.078998804 -0.010300128 0.26636747 0.18119182
0.10811823 0.15476424 0.1252167 0.113457225 0.1741123 0.14271697 -0.29190055 -0.0946502
0.19522133 0.20281048 0.07336486 0.13820304 0.019694693 0.16235122 0.028720366 0.087020814
0.12451698 0.18622155 0.12187691 0.18114907 0.02505294 0.13020353 0.13225022 0.11070431
0.13850175 0.16235897 0.04844774 -0.30976856 0.044145808 0.07986205 0.111262254 0.20374164
0.1640102 0.059614055 0.043923724 -0.24731849 0.122835994 0.120177105 -0.027815562 0.049146708
0.10162181 0.10951926 0.09685624 -0.0015722443 0.0985737 0.11853217 -0.29694277 0.053749025
0.12943432 0.041928824 0.080093 0.10403199 0.14280017 -0.30483088 -0.3124083 0.09963919
0.13056271 0.060819414 -0.0165252 0.11443299 0.08126901 0.016431663 0.14569983 0.05535595
-0.12320457 -0.16577265 0.16767113 0.13471062 0.012369419 0.16366723 0.16983795 0.036250774
0.23132668 -0.18185657 -0.095238656 -0.18011099 -0.16098559 0.16519302 -0.14228216 0.08391267
-0.085917644 -0.23298347 -0.17625247 0.17652854 0.0671328 -0.17984365 0.21830185 -0.087622866
0.17231782 -0.18258005 0.17540735 0.17814247 -0.10861164 0.19683476 -0.08438477 0.24046569
0.19307019 -0.096051395 0.07740907 0.03639578 0.18290414 -0.13181819 0.07267513 0.13096964
-0.17061262 0.077426344 -0.1765472 0.17376609 0.14320953 -0.06645233 -0.15486231 -0.10222481
0.09854713 0.074528515 -0.19276723 -0.17296162 -0.17162322 -0.31830946 0.2962289 -0.15963951
0.093435235 -0.17925 -0.08123825 -0.17709388 0.080860786 0.042755496 0.21181692 -0.15083548
-0.20132314 0.5454694 0.2988847 0.34723574 -0.20051521 0.29455563 -0.15259077 -0.0014650446
-0.076586455 -0.32068837 -0.29327676 0.34666246 0.3882052 0.3898115 0.1701424 0.254513
0.24785374 0.37133044 0.36958805 0.35360682 0.106084704 0.49592704 0.18977262 0.28597245
0.5356075 0.43967304 0.32631955 0.32102075 -0.2319968 0.4382064 -0.29349706 0.30674067
0.4661534 0.18150839 0.21448052 -0.098070845 0.43160102 -0.29465792 0.21733142 -0.107016
0.5491324 0.30613157 0.40349156 0.2500178 0.32964694 -0.18037225 0.4416664 -0.24193981
0.2464301 0.25480208 0.3180708 0.5401305 0.39103466 0.5907416 0.3132511 0.31049538
-0.34223962 0.37388465 0.30693695 0.45972484 0.30379373 0.30542406 0.45285723 -0.29184163
00000000: 343b 2b3e 0060 733e 3a3d 733e a868 5e3e
00000010: 859f a63d b8b2 753e 6e9a 673e ee04 b1bd
00000020: adf7 093e a0f1 633e 3ed8 af3d ea8e 823e
00000030: 9ad3 0b3e 93b0 713e 1e28 083e 13dc a03d
00000040: 5e67 a93d 0b9e 7f3e 78b9 823e e6ab 873e
00000050: 7b1d babd 9568 823e 8518 fe3d 65af ab3d
00000060: 8b03 7c3e 98d0 833e 4213 853e fd79 743e
00000070: f69c a53d 6d1c 863e 21a3 f13d 865e 653e
00000080: f7f2 843e 3c88 f23d 715b 9d3d 8d5e adbc
00000090: 6ada 803e da00 8abd ef17 a13d 6e42 043e
000000a0: 98c2 763e adff 973d c543 7b3e 7457 a73d
000000b0: 5735 293e 8827 9e3d d016 b9be 8311 1a3e
000000c0: 7fbb a63d f7b8 363e d77c 803e 1c4d 833e
000000d0: d0db 823e 86c1 e63e 3935 c93e 51d8 823e
000000e0: 2d06 003e 431f 813e 7e76 a83d e844 823e
000000f0: 20ca a13d dec1 28bc 5161 883e 598a 393e
00000100: 176d dd3d 847a 1e3e ce38 003e 435c e83d
00000110: 7f4a 323e 6624 123e fd73 95be f7d7 c1bd
00000120: 1ae8 473e 8dad 4f3e 5140 963d 1985 0d3e
00000130: c456 a13c 663f 263e f946 eb3c f837 b23d
00000140: c202 ff3d ddb0 3e3e 9a9a f93d 247f 393e
00000150: d33b cd3c 1354 053e 9a6c 073e f1b8 e23d
00000160: 67d3 0d3e 6e41 263e 2371 463d fc99 9ebe
00000170: 3cd2 343d b78e a33d 77dd e33d a6a1 503e
00000180: 4af2 273e de2d 743d 5de9 333d 0f41 7dbe
00000190: 7091 fb3d 6a1f f63d 76dd e3bc 0f4e 493d
000001a0: 181f d03d a24b e03d 905c c63d c413 ceba
000001b0: 02e1 c93d ffc0 f23d e208 98be f027 5c3d
000001c0: 6e8a 043e 8fbd 2b3d cc07 a43d b90e d53d
000001d0: 353a 123e cb12 9cbe fbf3 9fbe a20f cc3d
000001e0: 3bb2 053e c71d 793d db5f 87bc d85b ea3d
000001f0: 5e70 a63d b29b 863c 5632 153e ecbc 623d
00000200: ad52 fcbd 4ec0 29be fbb1 2b3e 95f1 093e
00000210: 1ba9 4a3c 6298 273e 00ea 2d3e b17b 143d
00000220: e7e0 6c3e 9c38 3abe 7c0c c3bd 046f 38be
00000230: 68d9 24be 5c28 293e 6ab2 11be 68da ab3d
00000240: 97f5 afbd 3893 6ebe 877b 34be e6c3 343e
00000250: ec7c 893d ef28 38be 858a 5f3e 9e73 b3bd
00000260: 1574 303e 44f6 3abe fc9d 333e fb6a 363e
00000270: c86f debd 0d8f 493e ecd1 acbd a33c 763e
00000280: 31b4 453e 98b6 c4bd a688 9e3d be13 153d
00000290: 394b 3b3e 59fb 06be b3d6 943d e81c 063e
000002a0: 13b5 2ebe b491 9e3d cac8 34be bdef 313e
000002b0: 85a5 123e 2918 88bd 3a94 1ebe 3e5b d1bd
000002c0: 14d3 c93d 68a2 983d c664 45be da1c 31be
000002d0: ffbd 2fbe 75f9 a2be 50ab 973e 8a78 23be
000002e0: f95a bf3d 508d 37be 3d60 a6bd 1958 35be
000002f0: 579a a53d 6320 2f3d 89e6 583e 9e74 1abe
00000300: a727 4ebe e2a3 0b3f 6a07 993e e2c8 b13e
00000310: dc53 4dbe ffcf 963e c140 1cbe bd06 c0ba
00000320: 5cd9 9cbd 4431 a4be 5f28 96be be7d b13e
00000330: d5c2 c63e 5f95 c73e cf39 2e3e 874f 823e
00000340: 5fcd 7d3e 061f be3e a53a bd3e f40b b53e
00000350: f042 d93d 26ea fd3e c153 423e fb6a 923e
00000360: 931d 093f d31c e13e 5b13 a73e d55c a43e
00000370: 9290 6dbe 975c e03e 3f45 96be 1d0d 9d3e
00000380: a9ab ee3e 56dd 393e c8a0 5b3e 5ed9 c8bd
00000390: cffa dc3e 67dd 96be 218c 5e3e 342b dbbd
000003a0: f193 0c3f 47bd 9c3e 7296 ce3e 5502 803e
000003b0: 7cc7 a83e 81b3 38be 1922 e23e 12bf 77be
000003c0: 2c58 7c3e 6b75 823e 2dda a23e fe45 0a3f
000003d0: b235 c83e d73a 173f 7362 a03e 40f9 9e3e
000003e0: 083a afbe cf6d bf3e d726 9d3e 0e61 eb3e
000003f0: da8a 9b3e 8b60 9c3e e7dc e73e 446c 95be

lstm.weight_hh_l0 f4 [256, 64]
-0.08456413 -0.12668936 0.050248485 0.05867777 -0.11234794 0.041882947 0.013687614 -0.021886535
0.06059824 -0.16218017 0.046255752 -0.12177181 0.073106386 0.1539729 -0.06240648 -0.056090366
0.0006883199 -0.18617226 0.060567487 0.06357182 -0.06648206 -0.01321893 0.003640581 0.009493239
0.11642113 -0.1335496 0.08956506 -0.0862376 -0.04384902 0.058617543 -0.1150758 -0.06901228
0.1731061 0.05162207 -0.072589844 0.12725697 0.17999476 -0.076349355 -0.0024619286 0.1119692
-0.018482283 -0.10029457 -0.0030452053 -0.041479163 0.031718377 0.020456823 -0.0155061735 -0.036245134
0.009992391 -0.07410425 0.012547959 0.03501342 -0.20066956 -0.123094335 -0.00061254104 -0.24926238
0.039954606 -0.0434395 -0.022703608 -0.18549182 0.041263312 0.13928135 0.17212717 -0.09506761
0.106496185 -0.20941627 0.07984053 0.1716995 -0.19105564 0.14805233 0.121275894 0.2355292
0.07995797 -0.1975449 -0.055155825 -0.1340544 -0.20308422 0.15879121 -0.1707211 0.09338853
-0.04327128 -0.01803129 -0.11057725 0.18596973 -0.19935668 -0.086589865 -0.005311529 -0.027111255
0.047515716 -0.16837175 0.12185831 0.13088828 -0.04042592 0.09672779 -0.016146177 0.14891185
0.15407316 -0.037176255 0.090896316 0.13658728 0.10229338 -0.06070234 0.008411008 0.023039937
-0.23662664 0.27186713 -0.15435065 0.06498979 0.014247561 0.14131019 0.035788577 -0.053493485
0.05274111 0.13424072 -0.2300224 -0.16984724 -0.16114783 0.015932698 0.079198174 0.14886758
0.04232186 -0.107487775 -0.045542393 -0.08386479 0.1535456 0.240162 0.18280976 -0.07237742
0.098917544 0.043898188 0.14968272 0.18090384 -0.12720175 -0.013341075 0.14735684 0.015749179
0.12439277 -0.09808262 -0.0041432446 0.009298281 0.015540546 0.13316885 -0.056458987 -0.068961404
-0.121376075 -0.09541871 -0.03705299 0.03834975 -0.08520649 -0.099647276 0.11516132 -0.063644074
-0.032753628 -0.004077251 -0.048911892 -0.03750032 0.011044165 0.0921344 0.08505007 0.073198125
-0.0031026101 -0.15062293 0.12961634 -0.008060033 0.052442554 0.036341723 0.046367563 0.093987264
-0.16517176 0.10659792 -0.16246322 0.0036636135 0.11092254 0.12201945 -0.1039548 0.008851108
-0.031213637 0.022758968 -0.017021805 -0.07368101 -0.13353625 -0.04575905 -0.057708148 0.03424939
-0.08224473 -0.10053256 -0.17459501 -0.14517266 -0.059041813 0.056441907 0.049843702 0.012424108
-0.12496313 -0.053934544 0.13180389 0.045785125 -0.104660526 0.05474619 -0.00022416795 -0.011028807
-0.07690109 -0.11146109 -0.012669894 0.07771169 -0.1493409 0.10905639 -0.042199068 0.06291573
-0.016670931 -0.012035135 0.08406802 -0.06805161 -0.07153603 0.04930602 0.01200462 -0.123278394
0.009913376 -0.07042208 0.062380824 -0.06332526 0.039839484 0.047426414 0.09665249 0.14183924
0.07704534 -0.019655503 0.020246182 0.10383216 -0.026116695 0.04440768 0.109258346 0.037939306
0.06998482 0.12389291 -0.021566354 -0.068356514 -0.05659322 -0.00048131254 -0.044395946 -0.038261782
-0.056043435 0.02895965 0.04071502 -0.042353105 -0.014607682 -0.072789125 0.11916893 0.07133119
-0.042490583 0.08601999 -0.08781853 -0.082470715 0.025086794 0.00010959672 0.14082797 -0.031811595
00000000: f52f adbd dbba 01be 5bd1 4d3d 1a58 703d
00000010: ad16 e6bd 748d 2b3d 0442 603c 644b b3bc
00000020: dc35 783d 8f12 26be ac76 3d3d 8063 f9bd
00000030: cdb8 953d 12ab 1d3e f09d 7fbd 03bf 65bd
00000040: 5e70 343a f1a3 3ebe 9d15 783d f131 823d
00000050: bf27 88bd 3694 58bc d096 6e3b 8889 1b3c
00000060: 346e ee3d 3ac1 08be e36d b73d 579d b0bd
00000070: 089b 33bd f318 703d dcac ebbd 4f56 8dbd
00000080: ba42 313e aa71 533d fca9 94bd a74f 023e
00000090: 8c50 383e 0d5d 9cbd 4f58 21bb 1c50 e53d
000000a0: 2868 97bc 3d67 cdbd 1192 47bb 0ee6 29bd
000000b0: 21eb 013d 1195 a73c 9b0d 7ebc c775 14bd
000000c0: 20b7 233c f8c3 97bd f495 4d3c 3b6a 0f3d
000000d0: 527c 4dbe e218 fcbd ef92 20ba a33e 7fbe
000000e0: 71a7 233d 9eed 31bd ebfc b9bc 91f1 3dbe
000000f0: b803 293d c59f 0e3e 1b42 303e cfb2 c2bd
00000100: ac1a da3d 3871 56be 6f83 a33d fed1 2f3e
00000110: 17a4 43be 089b 173e 7f5f f83d 912e 713e
00000120: 01c1 a33d 3649 4abe 13eb 61bd 8e45 09be
00000130: 4ff5 4fbe 2a9a 223e 83d1 2ebe 7c42 bf3d
00000140: 3a3d 31bd 5bb6 93bc 5376 e2bd d96e 3e3e
00000150: 2824 4cbe 0756 b1bd 560c aebb 6c18 debc
00000160: d79f 423d a569 2cbe da90 f93d 9407 063e
00000170: a695 25bd 3819 c63d fd44 84bc 597c 183e
00000180: 5bc5 1d3e 2146 18bd d927 ba3d 89dd 0b3e
00000190: 317f d13d 04a3 78bd 53ce 093c 40be bc3c
000001a0: 414e 72be 2b32 8b3e 190e 1ebe 5e19 853d
000001b0: 9a6e 693c 9eb3 103e 0b97 123d fc1b 5bbd
000001c0: 1007 583d 6676 093e fe8a 6bbe 6fec 2dbe
000001d0: f003 25be 4a85 823c a732 a23d be70 183e
000001e0: b059 2d3d 8d22 dcbd a98a 3abd 4ec1 abbd
000001f0: 0f3b 1d3e 07ed 753e 7b32 3b3e 9d3a 94bd
00000200: 4895 ca3d 96ce 333d 6d46 193e db3e 393e
00000210: 2d41 02be 8694 5abc b6e4 163e 6c04 813c
00000220: a3c1 fe3d 8adf c8bd 0ec4 87bb d157 183c
00000230: c69d 7e3c 6a5d 083e 8a41 67bd a33b 8dbd
00000240: 0594 f8bd e26a c3bd e0c4 17bd a114 1d3d
00000250: bd80 aebd df13 ccbd b3d9 eb3d d357 82bd
00000260: ab28 06bd 769a 85bb d657 48bd ef99 19bd
00000270: 96f2 343c f6b0 bc3d bb2e ae3d e6e8 953d
00000280: 2955 4bbb e63c 1abe 25ba 043e 3b0e 04bc
00000290: 01ce 563d 0fdb 143d eaeb 3d3d 657c c03d
000002a0: c922 29be 0350 da3d c25c 26be 3c19 703b
000002b0: 5b2b e33d 55e5 f93d 41e6 d4bd 3d04 113c
000002c0: beb3 ffbc 0471 ba3c 5071 8bbc 12e6 96bd
000002d0: babd 08be d76d 3bbd 615f 6cbd 1749 0c3d
000002e0: ed6f a8bd 04e4 cdbd 09c9 32be 24a8 14be
000002f0: d4d5 71bd a12f 673d e928 4c3d 7c8e 4b3c
00000300: abec ffbd 78ea 5cbd 99f7 063e 2f89 3b3d
00000310: 4258 d6bd 8a3d 603d a00e 6bb9 2bb2 34bc
00000320: 527e 9dbd b645 e4bd 6395 4fbc 4e27 9f3d
00000330: d2ec 18be f558 df3d eed8 2cbd f6d9 803d
00000340: 7a91 88bc 042f 45bc db2b ac3d a45e 8bbd
00000350: 7b81 92bd 1cf5 493d 07af 443c 6279 fcbd
00000360: b66b 223c 7439 90bd 0983 7f3d adb0 81bd
00000370: ba2e 233d 3342 423d bef1 c53d 4e3e 113e
00000380: f2c9 9d3d 9404 a1bc 52db a53c f5a5 d43d
00000390: aef2 d5bc d4e4 353d d7c2 df3d 3f66 1b3d
000003a0: 3454 8f3d 91bb fd3d ecab b0bc 80fe 8bbd
000003b0: 4bce 67bd ad58 fcb9 86d8 35bd 63b8 1cbd
000003c0: cd8d 65bd ca3c ed3c cbc4 263d 737a 2dbd
000003d0: 0f55 6fbc 7712 95bd d70e f43d 1616 923d
000003e0: 9b0a 2ebd 402b b03d 34da b3bd 68e6 a8bd
000003f0: d282 cd3c 4bd7 e538 3535 103e e04c 02bd

lstm.bias_ih_l0 f4 [256]
0.097271666 0.053174198 0.085099995 0.17318474 -0.3160266 0.025694206 0.1367072 -0.18920584
0.18355049 0.08452695 0.124908045 0.14582103 -0.010766758 0.16553248 0.16422671 -0.0019020563
-0.055550765 0.22524863 0.107912 -0.0143498415 -0.43025663 0.14494313 0.037243765 0.18407571
0.1491674 0.21764335 -0.0021054475 0.0077638077 0.08569905 0.13154615 0.040383704 0.114028186
0.084359854 0.078437835 0.15905023 -0.054297857 0.036770344 0.21715236 0.16261676 0.16499501
0.2607842 0.11293539 0.22270863 -0.046682633 0.18320744 0.13709113 0.32484412 0.10640522
0.034661166 0.022156494 -0.0047921767 0.01743248 0.14356598 0.165314 0.1270191 0.14337449
0.20237884 0.11286819 -0.04905366 -0.00294711 0.120494805 0.18495134 -0.05571678 0.0073866225
0.13347575 0.104669385 -0.0159694 0.15464477 -0.15817147 0.06243175 -0.13951895 -0.17321904
0.17957932 0.13711166 0.11169478 -0.044279892 0.16484071 0.0007407809 0.11507411 0.03164459
-0.029384168 -0.04465022 -0.036301974 0.05701946 -0.37680593 0.064917006 0.15548638 0.01426312
0.10142732 0.11972577 0.19363824 -0.23150235 0.09996596 0.16898935 0.04198527 -0.020641366
-0.04270743 0.19213493 -0.047234222 -0.15459588 -0.014766034 0.017344318 0.054810636 0.069586255
0.16075265 -0.056143906 0.122798905 0.011963967 -0.04363579 -0.05279504 0.3897247 0.16691339
-0.039374955 0.015514882 0.15766664 0.050557796 -0.023960156 0.41593337 0.24780591 0.13534181
0.10876721 0.16796198 0.21791676 0.20153514 0.12510711 0.045191437 0.035556767 0.081795245
-0.078532 -0.08155579 0.005434747 0.046091694 0.40772948 0.07583358 -0.26726687 0.023236914
0.0783887 -0.13577178 -0.14460762 -0.0054949005 -0.11022831 0.027137429 -0.085159145 -0.041932438
-0.083926804 -0.0042301635 -0.07276479 0.1530642 0.3102304 -0.13496853 0.16790904 0.0409505
0.105805844 -0.14253889 0.1339874 -0.10213449 -0.16372092 -0.034955032 -0.22018154 -0.037899926
0.13403332 0.06727694 -0.06427281 -0.08913899 0.06489139 -0.119915254 0.14056228 -0.06641884
-0.12495182 -0.012467881 -0.09425481 0.12502733 -0.03164917 -0.012745119 -0.04921885 0.027885525
0.004503677 0.19109769 -0.11773854 -0.20042618 -0.12844433 -0.05016207 0.15934731 -0.1917337
0.1590268 -0.026050601 -0.052485235 -0.056639507 -0.06930496 0.23439047 0.008935911 -0.12786789
0.3672696 0.24768695 -0.26265407 -0.20764282 -0.3946268 -0.14858252 -0.11682219 -0.37639457
-0.17363654 0.42823482 0.32009667 0.31539968 -0.4317337 0.3829085 -0.38365334 -0.5314715
-0.518997 0.3463552 0.24862392 0.20966415 -0.34084076 -0.023639608 -0.4790884 -0.50511974
0.2951026 0.3104316 0.3606139 -0.51471555 0.4542799 0.097245105 0.18454716 -0.41841117
0.19801302 -0.4646228 -0.30105323 -0.19568051 0.36286676 0.44441 -0.5128685 -0.1904145
0.039613403 -0.4997274 0.18414558 -0.4699336 -0.3526745 -0.4634793 0.24737221 0.2374736
-0.47220907 -0.3707139 0.29995415 0.16242369 0.33171666 0.29352796 0.23168537 0.32013038
0.33645388 0.41226098 -0.5883675 0.22684614 -0.52325153 -0.6616271 0.23228829 0.3583308
00000000: 5e36 c73d 30cd 593d e848 ae3d 5757 313e
00000010: 3dce a1be a87c d23c f9fc 0b3e 2dbf 41be
00000020: a9f4 3b3e 771c ad3d cacf ff3d 1c52 153e
00000030: 0e67 30bc 5981 293e 0c2b 283e 6b4e f9ba
00000040: 3389 63bd 94a7 663e f700 dd3d 991b 6bbc
00000050: 994a dcbe f96b 143e eb8c 183d 587e 3c3e
00000060: 57bf 183e e6dd 5e3e 8cfb 09bb 8a67 fe3b
00000070: fc82 af3d 09b4 063e 6269 253d 9c87 e93d
00000080: dcc4 ac3d 04a4 a03d 10de 223e 6e67 5ebd
00000090: 809c 163d 305d 5e3e 0285 263e 74f4 283e
000000a0: 8285 853e ab4a e73d bb0d 643e 4a36 3fbd
000000b0: bb9a 3b3e 9e61 0c3e f851 a63e fbea d93d
000000c0: def8 0d3d 8981 b53c b107 9dbb 8fce 8e3c
000000d0: f602 133e 1348 293e 4c11 023e c3d0 123e
000000e0: 663c 4f3e 7027 e73d 7eec 48bd 4d24 41bb
000000f0: fbc5 f63d e263 3d3e 4737 64bd 7b0b f23b
00000100: dead 083e e75c d63d 42d2 82bc 335b 1e3e
00000110: b4f7 21be 6fb8 7f3d 0ede 0ebe 5560 31be
00000120: a4e3 373e 0067 0c3e 3cc0 e43d d55e 35bd
00000130: 01cc 283e f730 423a faab eb3d c29d 013d
00000140: 11b7 f0bc 26e3 36bd 61b1 14bd 3d8d 693d
00000150: b5ec c0be 35f3 843d d237 1f3e dcaf 693c
00000160: 20b9 cf3d c932 f53d 1a49 463e f40e 6dbe
00000170: f4ba cc3d 8b0b 2d3e bff8 2b3d 1518 a9bc
00000180: fced 2ebd 05bf 443e ac78 41bd 624e 1ebe
00000190: 3ced 71bc ac15 8e3c 1e81 603d 3d83 8e3d
000001a0: 589c 243e 27f7 65bd fe7d fb3d 8404 443c
000001b0: 71bb 32bd 9d3f 58bd ff89 c73e 58eb 2a3e
000001c0: a247 21bd 2232 7e3c 5d73 213e b115 4f3d
000001d0: 1748 c4bc 38f5 d43e d5c0 7d3e 0b97 0a3e
000001e0: 58c1 de3d 3afe 2b3e 9225 5f3e 3a5f 4e3e
000001f0: 141c 003e a81a 393d f9a3 113d 4484 a73d
00000200: 63d5 a0bd b906 a7bd f615 b23b a5ca 3c3d
00000210: ebc1 d03e a34e 9b3d 34d7 88be 575b be3c
00000220: 418a a03d c207 0bbe 0514 14be 910e b4bb
00000230: 61bf e1bd 504f de3c eb67 aebd 59c1 2bbd
00000240: d1e1 abbd 2f9d 8abb b505 95bd ddbc 1c3e
00000250: 85d6 9e3e 3135 0abe 59f0 2b3e b6bb 273d
00000260: bcb0 d83d b7f5 11be fe33 093e e32b d1bd
00000270: 75a6 27be 022d 0fbd 4577 61be f43c 1bbd
00000280: 0840 093e 7ec8 893d 77a1 83bd 818e b6bd
00000290: c7e5 843d 2196 f5bd 8fef 0f3e 9a06 88bd
000002a0: bde6 ffbd 1546 4cbc aa08 c1bd 2a07 003e
000002b0: 8fa2 01bd e7d0 50bc b499 49bd 2f70 e43c
000002c0: 9593 933b 1daf 433e e720 f1bd 853c 4dbe
000002d0: e986 03be be76 4dbd f12b 233e d755 44be
000002e0: ecd7 223e 1268 d5bc c2fa 56bd d4fe 67bd
000002f0: c2ef 8dbd 0e04 703e ed67 123c cdef 02be
00000300: c30a bc3e a6a1 7d3e 987a 86be 52a0 54be
00000310: 860c cabe 0426 18be 7940 efbd cab6 c0be
00000320: c7cd 31be 9841 db3e b6e3 a33e 117c a13e
00000330: 330c ddbe 950c c43e 366e c4be 840e 08bf
00000340: fddc 04bf 7855 b13e 4597 7e3e 33b2 563e
00000350: ae82 aebe daa7 c1bc 134b f5be 874f 01bf
00000360: b017 973e e4f0 9e3e 63a2 b83e 66c4 03bf
00000370: 6097 e83e 7128 c73d eef9 3c3e fd39 d6be
00000380: edc3 4a3e 0ae3 edbe a623 9abe 7960 48be
00000390: acc9 b93e b589 e33e 5a4b 03bf 05fc 42be
000003a0: aa41 223d 45dc ffbe a990 3c3e 239b f0be
000003b0: c191 b4be 294d edbe 244f 7d3e 482c 733e
000003c0: 63c5 f1be 36ce bdbe 9793 993e 6552 263e
000003d0: c4d6 a93e 4c49 963e ee3e 6d3e 21e8 a33e
000003e0: af43 ac3e df13 d33e 419f 16bf 5b4a 683e
000003f0: d0f3 05bf 6560 29bf fbdc 6d3e 2277 b73e

lstm.bias_hh_l0 f4 [256]
0.009583524 0.23360431 0.027626524 -0.0045617167 -0.2616948 -0.009558363 0.102994666 -0.1833355
-0.010382712 0.1817566 0.20282108 0.02600517 0.21918276 0.09456889 0.068679705 0.17924243
0.14911018 0.21956882 -0.026328342 -0.023891594 -0.38316974 -0.0327588 0.13150081 0.14514624
0.0969864 -0.024722822 0.11334592 -0.057675622 0.08877617 0.1709747 0.035944637 -0.013568304
-0.00692113 0.13670963 -0.06880001 -0.021056172 0.056055486 0.16418058 0.1361595 0.08252085
0.075027294 0.06441473 0.06184629 0.057628937 0.090712234 0.00811259 0.33844608 0.10264378
0.03059698 0.14064941 0.11581357 0.11718929 0.03211295 0.31200856 0.18628573 0.27714124
0.05650487 0.0704396 0.11936283 0.1711563 0.027953612 0.20313585 0.10303388 -0.022298783
-0.046995405 -0.024950575 0.058366597 -0.030283771 -0.2566493 0.12654056 -0.3443575 -0.11575263
-0.0021986149 0.049271494 0.025315994 -0.046789188 0.081517816 0.03692781 0.11117248 0.12597847
-0.06711179 0.048324823 0.15972416 0.16160776 -0.32369366 0.0785225 -0.056113683 0.13225758
0.048426244 0.06705458 0.099688105 -0.13744943 -0.020189323 0.059604082 -0.0125000905 0.03295584
-0.007439012 0.05320421 0.12197198 -0.28297475 -0.00012542508 0.03277007 0.16806647 0.17203109
-0.024632836 0.089756265 0.14625816 0.1585439 0.0010024955 0.10232595 0.3062121 0.04917267
0.10685407 0.16896862 0.112727866 0.08333965 -0.020441383 0.39319396 0.33653596 -0.0024930655
0.1078019 0.18991208 0.19415334 -0.03754286 0.18234122 0.032919187 0.007692108 0.10470328
-0.102364525 -0.17664494 0.035871603 0.21222128 0.45919952 0.08024315 -0.28117833 0.049894407
0.12260176 -0.140594 -0.10468908 -0.06017795 -0.029101742 0.21827875 -0.13952383 0.036579087
0.06325101 -0.12037016 -0.08366648 0.031028535 0.1506627 0.08189898 -0.004932504 -0.066807784
0.057003308 0.028740734 0.11572135 -0.0008983592 -0.19756761 -0.053872243 -0.21716304 0.08389845
0.02711105 -0.12340358 0.07532351 0.0073852628 -0.09622381 0.033658594 0.028864818 0.03254064
-0.07632769 0.10794546 -0.058374736 -0.0140406685 -0.0041668327 -0.012322444 -0.2206201 0.07217955
0.059884503 -0.017358901 0.07490683 -0.082399204 -0.150664 -0.19423163 0.014700359 -0.36256692
-0.0046368926 -0.057636615 -0.08551267 -0.071063414 0.09883533 0.16271284 -0.04072891 0.018769834
0.5373899 0.12611748 -0.116484135 -0.28233492 -0.27941155 -0.143428 -0.045744803 -0.44255424
-0.13711964 0.36422634 0.43276262 0.2652788 -0.36100987 0.3512667 -0.5107483 -0.51384795
-0.5696405 0.28823555 0.28928056 0.22284816 -0.31642044 -0.00815957 -0.28307268 -0.4800752
0.10520787 0.14050925 0.22724539 -0.4241949 0.26752287 0.0703279 0.19906247 -0.34491512
0.16640513 -0.36723697 -0.29344285 -0.07437866 0.24047233 0.38620892 -0.44984767 -0.3418944
0.08375976 -0.5127396 0.25347754 -0.5510386 -0.34936652 -0.41920206 0.26129082 0.27592304
-0.43625927 -0.5219497 0.22540146 0.19126455 0.29675925 0.16157517 0.44573414 0.14868149
0.30263296 0.37256435 -0.5889582 0.21256475 -0.6026741 -0.47437766 0.2606412 0.6037349
00000000: 3704 1d3c f835 6f3e 0551 e23c 747a 95bb
00000010: dcfc 85be ae9a 1cbc deee d23d 4dbc 3bbe
00000020: 401c 2abc 671e 3a3e 54b0 4f3e cb08 d53c
00000030: 7271 603e 56ad c13d f2a7 8c3d 548b 373e
00000040: 57b0 183e a6d6 603e 89ae d7bc 4eb8 c3bc
00000050: d32e c4be 172e 06bd 26a8 063e 37a1 143e
00000060: cea0 c63d 8487 cabc e821 e83d 463d 6cbd
00000070: 48d0 b53d fe13 2f3e af3a 133d 974d 5ebc
00000080: a6ca e2bb 9cfd 0b3e 05e7 8cbd fe7d acbc
00000090: 709a 653d f41e 283e 656d 0b3e b100 a93d
000000a0: e9a7 993d dfeb 833d 8952 7d3d 520c 6c3d
000000b0: 56c7 b93d abea 043c ce48 ad3e e736 d23d
000000c0: 85a6 fa3c 6606 103e aa2f ed3d f000 f03d
000000d0: de88 033d 96bf 9f3e b0c1 3e3e 75e5 8d3e
000000e0: a771 673d a342 903d 8074 f43d 9943 2f3e
000000f0: f9fe e43c d802 503e 6d03 d33d f0ab b6bc
00000100: 417e 40bd 2665 ccbc d011 6f3d ac15 f8bc
00000110: 8967 83be d993 013e a04f b0be b70f edbd
00000120: a316 10bb e8d0 493d 7d63 cf3c 05a6 3fbd
00000130: d0f2 a63d 9e41 173d 66ae e33d 8000 013e
00000140: e871 89bd 40f0 453d bb8e 233e 817c 253e
00000150: 2dbb a5be 68d0 a03d 76d7 65bd 886e 073e
00000160: 995a 463d e953 893d 4729 cc3d 8bbf 0cbe
00000170: 1464 a5bc 6923 743d 2ecd 4cbc b4fc 063d
00000180: f5c2 f3bb a8ec 593d 72cc f93d 11e2 90be
00000190: 8a84 03b9 e939 063d 9e19 2c3e eb28 303e
000001a0: cdca c9bc 22d2 b73d b3c4 153e 5559 223e
000001b0: 2b66 833a 4590 d13d d5c7 9c3e 4869 493d
000001c0: 4fd6 da3d 1c06 2d3e dedd e63d faad aa3d
000001d0: b074 a7bc b850 c93e 714e ac3e b362 23bb
000001e0: 3ec7 dc3d 5078 423e 22d0 463e 8bc6 19bd
000001f0: a8b7 3a3e 45d6 063d 140e fc3b ac6e d63d
00000200: 7ea4 d1bd 69e2 34be 1aee 123d 8950 593e
00000210: 331c eb3e 8556 a43d 9bf6 8fbe 145e 4c3d
00000220: a216 fb3d e0f7 0fbe 3a67 d6bd 277d 76bd
00000230: c766 eebc 7784 5f3e 56df 0ebe f4d3 153d
00000240: bf89 813d a184 f6bd 5559 abbd 8e2f fe3c
00000250: 5347 1a3e a7ba a73d d8a0 a1bb 85d2 88bd
00000260: 4d7c 693d b071 eb3c 51ff ec3d de7f 6bba
00000270: 2a4f 4abe 24a9 5cbd fd5f 5ebe f3d2 ab3d
00000280: fe17 de3c 04bb fcbd 3643 9a3d 1300 f23b
00000290: fd10 c5bd 98dd 093d e975 ec3c 5649 053d
000002a0: b151 9cbd 8212 dd3d 591a 6fbd d50a 66bc
000002b0: ed89 88bb 13e4 49bc 3cea 61be dfd2 933d
000002c0: 7449 753d 4134 8ebc c168 993d eac0 a8bd
000002d0: aa47 1abe a8e4 46be c6d9 703c 5fa2 b9be
000002e0: 13f1 97bb 5f14 6cbd 4421 afbd b289 91bd
000002f0: 2d6a ca3d 329e 263e 5cd3 26bd 32c3 993c
00000300: 6292 093f f124 013e 3c8f eebd 348e 90be
00000310: 080f 8fbe cade 12be e75e 3bbd 7896 e2be
00000320: 1769 0cbe e07b ba3e 1093 dd3e 9fd2 873e
00000330: 49d6 b8be 3bd9 b33e 67c0 02bf 8a8b 03bf
00000340: f6d3 11bf 9c93 933e 951c 943e 4f32 643e
00000350: dc01 a2be b8af 05bc e7ee 90be 6bcc f5be
00000360: 3977 d73d a8e1 0f3e 04b3 683e 1330 d9be
00000370: c2f8 883e 1308 903d 08d7 4b3e b798 b0be
00000380: 1b66 2a3e 7c06 bcbe 243e 96be d753 98bd
00000390: 613e 763e 2dbd c53e 6f52 e6be c80c afbe
000003a0: 3d8a ab3d e742 03bf cfc7 813e de10 0dbf
000003b0: 2be0 b2be a7a1 d6be e9c7 853e c945 8d3e
000003c0: 605d dfbe 7f9e 05bf a4cf 663e dbda 433e
000003d0: d4f0 973e f673 253e 4437 e43e f63f 183e
000003e0: b5f2 9a3e c1c0 be3e f7c5 16bf 93aa 593e
000003f0: da48 1abf a1e1 f2be c372 853e 5f8e 1a3f

lstm.weight_ih_l1 f4 [256, 64]
0.11349117 -0.059088215 -0.018070366 0.09867813 -0.10479351 0.09025191 -0.026227754 -0.023868436
-0.010188214 0.0070557054 -0.0337965 -0.12923683 -0.03236127 0.07040457 0.021061659 0.021397693
-0.1576793 0.016237287 0.03921326 -0.010257068 -0.052402925 0.039173912 0.09420426 -0.040229406
0.11567857 0.06005302 0.012994521 0.018935245 0.067841865 0.042925157 0.05162351 0.018825604
0.0028872313 -0.044183556 0.130633 0.12454958 -0.027780658 0.039333735 -0.06057581 -0.04282928
-0.09959994 0.079255976 0.04802212 0.015874896 0.13445747 0.08255337 -0.093002744 0.0028865305
0.052927393 0.027191326 0.050509255 -0.11184051 0.045860644 0.0045849434 -0.088675424 0.04486226
-0.11395863 0.06307576 0.09334881 0.07034207 -0.08425299 -0.0029400415 0.10231995 0.08578839
0.1216228 0.037454657 0.0034011758 -0.049763206 -0.085914545 0.07437942 0.066096514 0.069678865
0.030110385 -0.04266316 -0.14865145 0.046590056 -0.05299024 0.0006624302 -0.0042886576 -0.06289824
-0.12975906 -0.05709315 0.07602992 0.03071225 0.06227809 0.052620318 0.051025663 -0.09154792
-0.055565473 -0.037711248 0.055976406 0.13633022 -0.043372218 0.10730643 0.028218605 0.14925042
-0.07843399 -0.10460739 -0.049671248 0.104324155 0.108667575 0.021956638 0.11049547 -0.054516286
0.05156724 0.008090561 0.04155895 -0.042381518 0.12666647 0.1301188 -0.022791361 -0.1341934
0.1252071 -0.03733809 -0.042319972 0.0063146525 0.008197903 0.035143316 0.13029619 0.061573178
-0.059519358 -0.10670165 0.06737306 0.07193928 -0.01692168 0.11421677 0.12005278 -0.027375387
0.11236339 0.08898283 -0.049715143 -0.07956005 -0.14388499 0.06263841 0.14410414 0.11098676
0.07537007 0.060863744 -0.03804902 -0.077477515 -0.045223586 -0.026647571 0.06789649 0.15410553
-0.12900363 -0.025143402 -0.01129887 -0.08413273 0.044609897 -0.06730327 -0.021018779 -0.05805419
0.13038667 -0.12004615 0.09912216 0.11750724 0.03544688 0.15616414 0.098002374 0.040178653
0.08839575 0.008246165 -0.017360488 -0.08221073 0.107543774 0.036595847 0.030320985 0.07244259
-0.11840812 -0.06300197 0.027745951 0.10762126 0.062472317 0.07885789 -0.10069151 -0.047465328
0.0010247434 -0.060296923 0.020378929 0.05983278 -0.0776279 -0.11434516 0.09636901 0.004906175
0.065842405 -0.0016971066 0.017023 -0.15284878 0.13674857 0.14055377 0.035944257 -0.12340471
0.08408918 -0.03909683 0.11671986 0.042543925 0.052150402 0.096238896 0.14832413 -0.08972236
0.036636222 -0.14321643 -0.053014483 0.079425596 -0.00394344 -0.012038086 -0.029634913 0.093901925
-0.072395444 -0.004046617 -0.02858838 -0.05732475 -0.08559878 0.05003142 -0.025478246 0.030330949
0.12994874 -0.08002943 0.10579687 -0.024546629 0.028220596 0.1107631 -0.08862392 -0.10331537
0.15711947 -0.11837347 0.14174867 -0.016099898 0.03503929 0.013682104 0.1575849 -0.024476567
-0.057341546 0.13951764 -0.07649583 -0.06836408 0.11229795 -0.010689636 -0.0412713 -0.03047906
-0.042459823 0.13768913 0.024905626 -0.15931343 7.1098235e-05 -0.062180273 0.07594339 0.078590974
-0.028299227 0.05872165 -0.14189498 0.033050343 -0.05803297 -0.079590596 -0.012332969 -0.09787153
00000000: 0f6e e83d 7c06 72bd 4e08 94bc c217 ca3d
00000010: fb9d d6bd fed5 b83d 96db d6bc bd87 c3bc
00000020: 77ec 26bc 8c33 e73b 336e 0abd a956 04be
00000030: 408d 04bd 4530 903d 8089 ac3c 374a af3c
00000040: af76 21be 0f04 853c 159e 203d 430d 28bc
00000050: 73a4 56bd d374 203d 2aee c03d 97c7 24bd
00000060: e3e8 ec3d 28fa 753d f9e6 543c 161e 9b3c
00000070: adf0 8a3d 4ad2 2f3d 2c73 533d 2738 9a3c
00000080: b437 3d3b d1f9 34bd a8c4 053e da13 ff3d
00000090: 4394 e3bc 691c 213d 571e 78bd c16d 2fbd
000000a0: 0efb cbbd f550 a23d d8b2 443d 120c 823c
000000b0: 38af 093e be11 a93d 3978 bebd f22b 3d3b
000000c0: 65ca 583d 58c0 de3c cbe2 4e3d a30c e5bd
000000d0: 5fd8 3b3d 4b3d 963b 769b b5bd 7dc1 373d
000000e0: 2463 e9bd dd2d 813d a92d bf3d 810f 903d
000000f0: d58c acbd b6ad 40bb 1f8d d13d d3b1 af3d
00000100: 6015 f93d 0e6a 193d 43e6 5e3b 81d4 4bbd
00000110: f7f3 afbd 3d54 983d 9c5d 873d cbb3 8e3d
00000120: 0eaa f63c 91bf 2ebd 1638 18be 37d5 3e3d
00000130: 4b0c 59bd f0a6 2d3a de87 8cbb cbd0 80bd
00000140: 8fdf 04be 82da 69bd 93b5 9b3d 4298 fb3c
00000150: 4f17 7f3d 6788 573d 4900 513d 7a7d bbbd
00000160: 9f98 63bd 1c77 1abd 8447 653d 269a 0b3e
00000170: 11a7 31bd 79c3 db3d b42a e73c 1ad5 183e
00000180: 00a2 a0bd 663c d6bd 1474 4bbd e7a7 d53d
00000190: 1b8d de3d 68de b33c 734b e23d 784c 5fbd
000001a0: 2c38 533d 468e 043c b839 2a3d 3e98 2dbd
000001b0: dbb4 013e dd3d 053e f3b4 babc ff69 09be
000001c0: 4a36 003e d3ef 18bd b557 2dbd 25eb ce3b
000001d0: 7f50 063c 70f2 0f3d 5d6c 053e 2834 7c3d
000001e0: 92ca 73bd 6586 dabd e3fa 893d e754 933d
000001f0: 569f 8abc 7bea e93d 3bde f53d 5942 e0bc
00000200: c71e e63d a13c b63d 1ba2 4bbd 61f0 a2bd
00000210: 9656 13be 9148 803d 0990 133e 074d e33d
00000220: a05b 9a3d 434c 793d 4ad9 1bbd 88ac 9ebd
00000230: 5e3c 39bd 024c dabc 510d 8b3d d7cd 1d3e
00000240: 8719 04be 89f9 cdbc e51e 39bc c84d acbd
00000250: deb8 363d 4cd6 89bd 932f acbc 3bca 6dbd
00000260: 1584 053e c2da f5bd 8f00 cb3d a3a7 f03d
00000270: bf30 113d 7ee9 1f3e 78b5 c83d 5f92 243d
00000280: d508 b53d ec1a 073c 9537 8ebc 195e a8bd
00000290: e93f dc3d 87e5 153d b763 f83c c85c 943d
000002a0: f57f f2bd 2d07 81bd 7a4b e33c 8968 dc3d
000002b0: f9e2 7f3d 3f80 a13d 5a37 cebd 016b 42bd
000002c0: af50 863a e8f9 76bd b6f1 a63c 3813 753d
000002d0: 60fb 9ebd cc2d eabd 1e5d c53d fbc3 a03b
000002e0: 62d8 863d 7371 deba d273 8b3c 6484 1cbe
000002f0: d107 0c3e 54ed 0f3e 493a 133d 9cbb fcbd
00000300: f336 ac3d ff23 20bd d20a ef3d 8a42 2e3d
00000310: a99b 553d e618 c53d 48e2 173e 5bc0 b7bd
00000320: dd0f 163d 54a7 12be b725 59bd e3a9 a23d
00000330: f937 81bb 643b 45bc ebc4 f2bc a74f c03d
00000340: 1044 94bd 7c99 84bb 2e32 eabc 5bcd 6abd
00000350: 6a4e afbd bfed 4c3d c1b7 d0bc 9c78 f83c
00000360: 4811 053e 78e6 a3bd 08ac d83d 0316 c9bc
00000370: e12e e73c c4d7 e23d 7580 b5bd 0297 d3bd
00000380: ede3 203e ca6d f2bd 9026 113e efe3 83bc
00000390: 5c85 0f3d e72a 603c f05d 213e 1583 c8bc
000003a0: f8de 6abd b6dd 0e3e d9a9 9cbd 7702 8cbd
000003b0: 78fc e53d 9523 2fbc 180c 29bd 39af f9bc
000003c0: 5aea 2dbd 61fe 0c3e e206 cc3c 0f23 23be
000003d0: 931a 9538 beb0 7ebd 3588 9b3d 4ef4 a03d
000003e0: c8d3 e7bc 1d86 703d eb4c 11be cc5f 073d
000003f0: fbb3 6dbd 6500 a3bd 3910 4abc de70 c8bd

lstm.weight_hh_l1 f4 [256, 64]
0.15984344 -0.11832458 -0.0060387217 0.13817814 0.07763145 -0.0094305985 -0.06566413 -0.1203765
0.06968992 -0.14342052 0.027096098 0.05352474 -0.09416111 0.017869778 0.053979337 0.07475595
-0.04033517 0.02751166 0.019343928 0.13437729 0.0498301 0.096802756 -0.091665715 -0.007399906
-0.0069213486 -0.00372633 -0.10715194 0.12909514 -0.034246 0.13254328 -0.015607295 0.049251188
0.13738644 -0.12252016 -0.061741207 0.063049115 0.10556832 0.00958389 0.09171312 -0.078683466
-0.050334673 0.15113981 -0.15962583 0.05697778 -0.16491386 -0.17593381 0.11726721 -0.0781428
0.14134024 -0.1290738 0.041198213 0.03749933 -0.14063163 0.11842169 -0.014985668 0.04237651
-0.07716736 -0.14328843 -0.049044803 0.09296478 0.042540453 0.1306211 0.13981426 -0.054233342
-0.042659707 -0.1071545 -0.116706446 0.053957324 -0.011676545 -0.027600372 0.092081 -0.08128722
-0.01814657 -0.07422287 -0.034128547 0.1330677 0.004782856 -0.07927537 0.07866918 0.0028959883
-0.07373632 -0.12510368 0.029278388 0.05186845 0.013065029 -0.038474057 0.016523013 -0.076982684
-0.08547185 -0.024921507 0.028451879 -0.08268678 -0.04628483 -0.053533614 -0.04215241 -0.0012140538
0.05019596 0.08144578 0.08000304 -0.050680824 -0.07433126 -0.10815391 -0.037998844 0.012602005
0.009150746 -0.06497787 0.033939656 0.016114239 -0.1057609 0.037281867 -0.06738573 -0.12305898
0.0076512266 0.007109291 -0.051487267 -0.13139793 0.03514412 0.11580159 -0.092208765 -0.10566649
-0.018480184 -0.118815 0.07157934 0.14527154 -0.09771904 -0.0784978 0.1201979 0.016154492
0.06741038 -0.010351386 0.0611994 -0.08211608 0.13483422 -0.08811231 -0.14661674 0.00036543893
0.01563842 0.10556427 -0.12724233 0.10757512 0.03218276 0.11550918 -0.070251696 0.052851617
-0.11366671 0.027486041 0.08126179 -0.08887375 -0.076050386 0.0958537 0.014192217 0.056168348
0.14215943 0.1478372 -0.07469919 0.0035695813 0.12748277 -0.07861258 0.059969153 -0.14487217
0.08720074 0.017068839 0.033231206 0.090337135 0.11579144 -0.11987527 -0.06259508 0.07137625
-0.10356276 0.13218996 -0.12608662 0.14913112 0.060077664 -0.13840261 0.009058171 -0.07306123
0.024253143 -0.0894365 -0.108212344 -0.026037917 -0.0014874826 0.032296572 0.02784483 -0.012561756
0.007421457 0.019782318 0.026529465 -0.042835444 -0.039496507 -0.08643899 0.034281913 -0.06513685
-0.07435618 -0.15966876 -0.07618192 0.16509221 0.13957684 0.0020636683 0.055135045 -0.067845516
0.036408853 -0.0018731818 0.034486897 0.1398787 0.081160046 -0.037402492 0.04808704 0.036257565
0.06312339 0.019502023 -0.07076811 -0.06871322 0.16014014 0.00032154497 0.045609184 -0.07629286
-0.12375162 -0.0016449626 -0.057183582 0.12570754 -0.037252646 0.072253875 0.05700923 -0.056539547
0.020507349 -0.03436486 -0.14767772 -0.023361718 0.09569285 0.020676756 -0.05057388 0.04264604
0.061520338 0.06353547 -0.033131883 -0.09047738 0.0019126596 -0.15951528 -0.023363823 0.054280918
0.07598516 -0.08690555 -0.08460845 -0.099409 0.05827831 0.048298802 -0.033894565 -0.023367727
-0.059207477 -0.0128682405 0.04114321 0.05528286 -0.13601969 -0.00942643 0.12081929 0.014556862
00000000: 00ae 233e 2854 f2bd 78e0 c5bb 927e 0d3e
00000010: 3dfd 9e3d cc82 1abc ea7a 86bd f487 f6bd
00000020: 97b9 8e3d d4dc 12be a3f8 dd3c c23c 5b3d
00000030: 8ad7 c0bd a463 923c 7019 5d3d a619 993d
00000040: 7e36 25bd 2260 e13c 2877 9e3c 339a 093e
00000050: a61a 4c3d 8640 c63d 3cbb bbbd e97a f2bb
00000060: 7bcc e2bb 7135 74bb 7a72 dbbd 8431 043e
00000070: 8945 0cbd 6db9 073e bdb5 7fbc 9dbb 493d
00000080: 08af 0c3e daeb fabd 59e4 7cbd e51f 813d
00000090: 3434 d83d c005 1d3c 17d4 bb3d cc24 a1bd
000000a0: bb2b 4ebd 65c4 1a3e f474 23be 8861 693d
000000b0: 2edf 28be fe27 34be ca29 f03d 5509 a0bd
000000c0: 7fbb 103e ec2b 04be 75bf 283d e698 193d
000000d0: bd01 10be 1287 f23d 7286 75bc fe92 2d3d
000000e0: ec09 9ebd 34ba 12be 34e3 48bd 5264 be3d
000000f0: e63e 2e3d 8ac1 053e 782b 0f3e c823 5ebd
00000100: f2bb 2ebd d273 dbbd ca03 efbd 5b02 5d3d
00000110: fb4e 3fbc 2d1a e2bc f794 bc3d ea79 a6bd
00000120: 1ea8 94bc 2902 98bd 60ca 0bbd e642 083e
00000130: 81b9 9c3b 205b a2bd 4f1d a13d 9fca 3d3b
00000140: 1103 97bd 2e1b 00be 3bd9 ef3c 0374 543d
00000150: b40e 563c f996 1dbd 455b 873c 19a9 9dbd
00000160: de0b afbd 3028 ccbc ea13 e93c b057 a9bd
00000170: 2995 3dbd 1046 5bbd 01a8 2cbd e320 9fba
00000180: 479a 4d3d 0ccd a63d a2d8 a33d b296 4fbd
00000190: fd3a 98bd cc7f ddbd ada4 1bbd a478 4e3c
000001a0: 03ed 153c 1e13 85bd 4f04 0b3d 0202 843c
000001b0: 2c99 d8bd dfb4 183d 8801 8abd 5906 fcbd
000001c0: 24b7 fa3b 0ef5 e83b 50e4 52bd 2e8d 06be
000001d0: 48f3 0f3d 6229 ed3d f3d7 bcbd ac67 d8bd
000001e0: c163 97bc 4755 f3bd 3098 923d 10c2 143e
000001f0: ec20 c8bd 74c3 a0bd 512a f63d 6d56 843c
00000200: 740e 8a3d dc98 29bc 39ac 7a3d 7a2c a8bd
00000210: fb11 0a3e 3a74 b4bd b322 16be 6298 bf39
00000220: 251c 803c 1432 d83d d04b 02be 5850 dc3d
00000230: 12d2 033d 1490 ec3d 1fe0 8fbd f07a 583d
00000240: 18ca e8bd 682a e13c 956c a63d 7103 b6bd
00000250: 4ec0 9bbd f24e c43d 7986 683c c810 663d
00000260: 3e92 113e a362 173e e4fb 98bd a3ef 693b
00000270: d88a 023e a2ff a0bd 37a2 753d 5f59 14be
00000280: 4d96 b23d f3d3 8b3c 721d 083d ad02 b93d
00000290: 1024 ed3d 2a81 f5bd d931 80bd b62d 923d
000002a0: b618 d4bd ce5c 073e da1c 01be d4b5 183e
000002b0: ff13 763d 6ab9 0dbe b968 143c 20a1 95bd
000002c0: 87ae c63c 7c2a b7bd 6f9e ddbd 784d d5bc
000002d0: a2f7 c2ba 6949 043d d71a e43c d3cf 4dbc
000002e0: b22f f33b 870e a23c 5254 d93c 3874 2fbd
000002f0: 17c7 21bd ed06 b1bd 316b 0c3d 7866 85bd
00000300: 0e48 98bd 3580 23be 4405 9cbd ef0d 293e
00000310: 3bed 0e3e 9c3e 073b 49d5 613d 97f2 8abd
00000320: 7321 153d 8d85 f5ba 2242 0d3d 5d3c 0f3e
00000330: 3d37 a63d 5b33 19bd ebf6 443d d082 143d
00000340: d646 813d b5c2 9f3c dfee 90bd 84b9 8cbd
00000350: c7fb 233e 0995 a839 b2d0 3a3d 6e3f 9cbd
00000360: 7d71 fdbd c99b d7ba 5539 6abd 7ab9 003e
00000370: 3b96 18bd d7f9 933d 8382 693d 0396 67bd
00000380: 07ff a73c 2bc2 0cbd d438 17be 1361 bfbc
00000390: 9dfa c33d 4d62 a93c 8f26 4fbd 9dad 2e3d
000003a0: c0fc 7b3d e21e 823d 4cb5 07bd 344c b9bd
000003b0: 35b2 fa3a f957 23be 7d65 bfbc ab55 5e3d
000003c0: 1c9e 9b3d 89fb b1bd 3247 adbd f296 cbbd
000003d0: 3db5 6e3d f7d4 453d 07d5 0abd ad6d bfbc
000003e0: 8a83 72bd 50d5 52bc c885 283d 4870 623d
000003f0: bf48 0bbe 5071 1abc 1b70 f73d e87f 6e3c

lstm.bias_ih_l1 f4 [256]
-0.017290695 -0.017576896 -0.088492535 0.15452403 -0.027363935 0.02220568 -0.028432911 0.036830645
-0.032265447 0.025673239 0.09353473 0.14186543 -0.006103605 0.11846045 0.06566451 0.1149925
0.059682883 0.11272933 -0.05223754 0.046559427 -0.09064387 -0.09081455 0.11687871 -0.031418387
0.06257244 0.01584098 0.1569297 0.0026007057 0.09026185 -0.032551277 -0.0025071164 -0.09308842
0.15580659 0.13323596 0.08192848 -0.042907692 -0.008210553 0.052025136 0.14600167 0.027018188
-0.0071024415 0.03387237 0.06668834 -0.03194694 0.06655046 0.013188373 -0.08362671 0.024622709
-0.028088823 -0.08801311 0.0923172 0.040728703 0.081647925 0.053582024 -0.003589903 0.03165822
0.16746831 0.01427061 0.041333098 0.014454523 -0.017076114 -0.09121269 0.05852314 0.032527607
0.01116887 -0.011328588 -0.044093855 -0.00023377454 0.10838721 0.01492647 -0.08189171 0.08964981
-0.058527496 -0.07143526 0.0386734 0.06547745 0.089581326 0.061828706 -0.07879331 0.05837362
0.06703867 0.073412456 0.06490775 0.034890838 -0.016060783 0.12790582 0.06402845 0.047544457
0.07628344 -0.041038826 -0.06484536 0.13898808 -0.08739776 0.077059686 -0.01595032 0.07378086
-0.06264607 0.14151101 -0.0015914548 0.13127603 0.04314668 0.08754844 0.09995113 -0.065198004
0.03082349 -0.03935953 0.14543857 0.11694065 0.018280935 -0.007579192 0.13450989 -0.07174608
0.117740735 0.060774256 0.040910374 0.095085144 0.14221497 -0.089823775 0.12125578 -0.0054503554
0.07311971 0.13325626 0.05091241 0.1549512 0.08563654 0.115867384 0.028249593 0.029795298
0.09579917 -0.06904546 0.070442244 0.10115643 0.12764283 -0.17074794 -0.12527737 -0.056933694
0.09492114 -0.11012838 0.051024668 0.12563713 0.054406602 0.08469713 -0.066301525 -0.04672046
0.027893335 0.09264439 0.14189094 0.026760357 0.12209214 0.06402131 0.06580176 -0.024517072
0.069629915 0.09443947 0.033099506 0.022099411 -0.017943528 -0.0020855682 0.07445965 -0.0372164
-0.033084627 -0.0015486697 0.045113444 -0.0071879085 -0.09247604 -0.12990482 0.053485215 0.0027795918
0.021428755 -0.0019305444 -0.07022678 0.13678494 -0.032660406 -0.12211202 0.07868539 -0.1206089
0.0886774 -0.06951038 0.084373854 0.095462695 -0.046997566 -0.14463075 0.008070688 -0.050650857
0.053820066 -0.10347609 0.028844066 -0.001147431 0.043925196 0.020578014 0.14350371 0.0005613648
0.17678346 0.2497632 0.13013473 0.13155305 0.10324554 -0.077474676 0.24620557 0.10855993
0.15607314 0.2156667 0.19069543 0.09626052 0.25682643 0.18151733 0.15608697 0.09329558
0.16636246 0.1431003 0.2586943 0.25741658 0.12501322 0.2104829 0.25921997 0.08442877
0.21485896 0.091148034 0.07102474 0.20969619 0.07101809 0.104858756 0.119700015 0.177716
0.11554995 0.26839352 0.29899865 0.20691694 0.19586179 0.09867015 0.13005942 0.27606133
0.1915516 0.14395665 0.17642109 -0.1119077 0.08423943 0.16257992 0.123025 0.13820188
0.19270767 0.20188516 0.023882959 0.27521425 0.08442429 0.12941012 0.06003876 0.15615632
0.24669409 0.053665705 0.25990203 0.1390145 0.15431772 0.27231458 0.058174327 0.1511257
00000000: 37a5 8dbc 6cfd 8fbc 933b b5bd 8c3b 1e3e
00000010: 552a e0bc b0e8 b53c 23ec e8bc bbdb 163d
00000020: c628 04bd af50 d23c 238f bf3d 2c45 113e
00000030: c000 c8bb 649b f23d 1d7b 863d 3081 eb3d
00000040: 0a76 743d a3de e63d 08f7 55bd 19b5 3e3d
00000050: 7ea3 b9bd fbfc b9bd 1b5e ef3d 91b0 00bd
00000060: fb25 803d f1c4 813c 2eb2 203e 9a70 2a3b
00000070: 34db b83d 7d54 05bd 6f4e 24bb 24a5 bebd
00000080: c38b 1f3e 026f 083e 1eca a73d fabf 2fbd
00000090: 8e85 06bc 4f18 553d 7681 153e 3f55 dd3c
000000a0: 99bb e8bb c1bd 0a3d e593 883d cbda 02bd
000000b0: 9c4b 883d 0c14 583c 7b44 abbd 90b5 c93c
000000c0: 881a e6bc 3840 b4bd cd10 bd3d 24d3 263d
000000d0: 0737 a73d d378 5b3d 9444 6bbb 0dac 013d
000000e0: d07c 2b3e 47cf 693c e54c 293d aad2 6c3c
000000f0: 35e3 8bbc b8cd babd f6b5 6f3d ab3b 053d
00000100: a3fd 363c 8b9b 39bc c29b 34bd 6021 75b9
00000110: 1dfa dd3d 278e 743c d7b6 a7bd 529a b73d
00000120: 87ba 6fbd a64c 92bd 0068 1e3d 0b19 863d
00000130: 6a76 b73d 1940 7d3d 635e a1bd 2d19 6f3d
00000140: 924b 893d 4559 963d 5bee 843d b2e9 0e3d
00000150: e791 83bc bef9 023e 5921 833d fabd 423d
00000160: 7e3a 9c3d 5418 28bd a5cd 84bd e452 0e3e
00000170: 99fd b2bd 78d1 9d3d 3faa 82bc 6b1a 973d
00000180: 954c 80bd 43e8 103e 5d98 d0ba 396d 063e
00000190: 93ba 303d 994c b33d 2eb3 cc3d 8886 85bd
000001a0: 8b81 fc3c 7537 21bd d9ed 143e 947e ef3d
000001b0: e6c1 953c df5a f8bb f6bc 093e 9cef 92bd
000001c0: 0e22 f13d 6dee 783d a391 273d 00bc c23d
000001d0: cda0 113e 87f5 b7bd f354 f83d e598 b2bb
000001e0: c9bf 953d 5474 083e 8889 503d 87ab 1e3e
000001f0: 3662 af3d e14b ed3d b16b e73c 4515 f43c
00000200: 5b32 c43d b567 8dbd 0644 903d 1a2b cf3d
00000210: cdb4 023e 8cd8 2ebe b648 00be 4e33 69bd
00000220: 0466 c23d fd8a e1bd 3eff 503d 05a7 003e
00000230: 75d9 5e3d b075 ad3d 18c9 87bd f45d 3fbd
00000240: 9080 e43c 58bc bd3d dc4b 113e 8938 db3c
00000250: 720b fa3d 9b1d 833d 13c3 863d 07d8 c8bc
00000260: 219a 8e3d 7b69 c13d 5993 073d d309 b53c
00000270: 4efe 92bc 07ae 08bb 4d7e 983d 3970 18bd
00000280: bf83 07bd bbfc caba e0c8 383d 8c88 ebbb
00000290: 1464 bdbd c505 05be 5013 5b3d d029 363b
000002a0: 5b8b af3c 520a fdba 0fd3 8fbd 5a11 0c3e
000002b0: ebc6 05bd de15 fabd ce25 a13d cd01 f7bd
000002c0: 7f9c b53d 755b 8ebd 33cc ac3d f281 c33d
000002d0: 8580 40bd 151a 14be eb3a 043c 4677 4fbd
000002e0: 6e72 5c3d 46eb d3bd 644a ec3c 6565 96ba
000002f0: e8ea 333d 3993 a83c a3f2 123e 8e28 133a
00000300: b906 353e edc1 7f3e 0a42 053e d8b5 063e
00000310: 6672 d33d 0bab 9ebd 501d 7c3e ab54 de3d
00000320: a3d1 1f3e bbd7 5c3e aa45 433e 3c24 c53d
00000330: c17e 833e aedf 393e 43d5 1f3e c111 bf3d
00000340: ec5a 2a3e e388 123e 9473 843e 1bcc 833e
00000350: 7703 003e d488 573e 7bb8 843e fee8 ac3d
00000360: fd03 5c3e d2ab ba3d 6b75 913d 99ba 563e
00000370: ef71 913d 30c0 d63d 4825 f53d 2ffb 353e
00000380: 74a5 ec3d e06a 893e 5a16 993e 09e2 533e
00000390: fe8f 483e 9313 ca3d 4c2e 053e e957 8d3e
000003a0: 1a26 443e 5f69 133e bba7 343e dd2f e5bd
000003b0: b985 ac3d 5a7b 263e 88f4 fb3d cb84 0d3e
000003c0: 2955 453e fcba 4e3e 32a6 c33c e2e8 8c3e
000003d0: a4e6 ac3d 1684 043e 34eb 753d 71e7 1f3e
000003e0: 609d 7c3e 92d0 5b3d e111 853e d159 0e3e
000003f0: 7705 1e3e d16c 8b3e 3448 6e3d b2c0 1a3e

lstm.bias_hh_l1 f4 [256]
0.037745614 0.004208314 0.14551319 -0.08429946 -0.0048487354 0.1675536 0.035440713 0.057239175
-0.099889986 0.029653309 -0.001219614 0.054820538 0.04309458 0.12024121 0.14357027 -0.106115706
0.0911 -0.04520708 0.08485762 0.10230462 -0.041514825 0.05113249 -0.038871955 0.035355534
0.12627704 0.072596475 0.042336933 0.13669775 0.0013160306 -0.022535747 -0.076037414 0.13997911
-0.01730042 0.08478595 -0.023155473 -0.04298497 -0.016987976 -0.10588371 0.14046016 0.12927324
-0.09312971 0.05680922 0.07170862 -0.042433273 0.12246096 -0.018677695 0.11745197 0.10005421
0.076394886 -0.028543487 -0.052632976 -0.09052127 0.06344006 -0.012978745 -0.016151253 -0.07622772
-0.024478836 -0.06601274 0.106201924 0.10991723 -0.022730332 0.11062646 0.10010907 0.12933591
0.17720751 0.08785907 0.04667607 0.10334078 0.025219193 0.007850956 0.009704155 0.09198357
0.11241045 0.139411 0.120000444 0.1146098 0.038013287 0.043429915 0.01598954 -0.05892018
0.13043478 -0.059770525 0.030157916 0.10589741 0.12522458 -0.02568271 0.07800949 0.14945477
0.025553398 0.0536184 0.00961484 0.14004906 0.055734772 -0.07754833 0.08978189 0.0939568
0.0397699 -0.00048709687 0.1143824 -0.059008967 0.04937887 0.074613445 0.121527106 0.055218376
0.12815735 0.015450318 0.08869512 0.021982951 -0.03209276 -0.051016886 0.0007310116 0.14473145
-0.034754306 -0.10086064 0.059382655 -0.05855538 -0.063424304 -0.05195059 0.04545879 -0.033100493
-0.030722056 0.087098636 0.09629978 0.0037654173 0.0353955 -0.097232275 0.16199951 -0.07889179
-0.07841511 0.07230345 -0.058900822 -0.046448078 -0.059849948 -0.1652228 -0.13928463 -0.05248088
-0.12669484 0.055405233 0.08981124 -0.034375317 -0.06888514 0.0766237 0.025327737 0.14145623
0.014915536 -0.052071474 0.02631292 0.029086685 0.022979463 0.08669621 -0.049245678 0.088832706
0.04395942 0.050466593 -0.029390657 0.09014634 -0.049154643 0.039907567 -0.017236637 -0.01021008
-0.011099536 0.060382314 -0.112302884 -0.096391276 0.093153045 0.031531587 -0.0078264 0.06741363
-0.039226603 -0.01700289 0.052351307 -0.06175358 -0.15119629 0.09723912 0.03644966 -0.08150328
-0.07618546 0.06615397 -0.06223004 0.07637207 0.088281535 0.05800477 -0.06631891 0.034064077
-0.08938341 -0.026222903 -0.015393137 0.048214935 0.033643972 0.0029474525 -0.02808272 0.08094946
0.25160807 0.23799826 0.10372117 0.07380006 0.2596267 -0.093861945 0.2906409 0.144046
0.28163433 0.070829235 0.0941991 0.1861744 0.19940376 0.25536057 0.22571199 0.083487846
0.16373134 0.079860464 0.27645153 0.21616413 0.19420613 0.25959003 0.2742186 0.19304729
0.036453392 0.16334875 0.051414773 0.29447442 0.15514341 0.08694255 0.13896993 0.09963454
0.21596257 0.2297537 0.064174786 0.28122768 0.123875715 0.26747987 0.22318076 0.21866629
0.13775638 0.1749499 0.2160679 0.066962324 0.13030267 0.055368736 0.18833663 0.24465607
0.13046928 0.19687408 0.20786156 0.16135237 0.11440542 0.08941869 0.09183679 0.21819316
0.249092 0.1238438 0.14152221 0.169459 0.27290592 0.12577137 0.18499002 0.05512166
00000000: 259b 1a3d e6e5 893b 6901 153e 32a5 acbd
00000010: 24e2 9ebb 2c93 2b3e 482a 113d a073 6a3d
00000020: 1f93 ccbd 7feb f23c 74db 9fba 808b 603d
00000030: f183 303d 0641 f63d 1604 133e 3153 d9bd
00000040: a392 ba3d 0f2b 39bd d5c9 ad3d 1685 d13d
00000050: 730b 2abd 4d70 513d 3338 1fbd f7d0 103d
00000060: c54e 013e 76ad 943d 7e69 2d3d 7ffa 0b3e
00000070: a97e ac3a e39c b8bc 81b9 9bbd af56 0f3e
00000080: 9cb9 8dbc 42a4 ad3d 8cb0 bdbc 0211 30bd
00000090: 5e2a 8bbc 8fd9 d8bd cad4 0f3e 3460 043e
000000a0: caba bebd c9b0 683d f8db 923d 83ce 2dbd
000000b0: d0cc fa3d f701 99bc a98a f03d 39e9 cc3d
000000c0: ec74 9c3d 08d4 e9bc ad95 57bd 3763 b9bd
000000d0: ddec 813d cda4 54bc a24f 84bc 471d 9cbd
000000e0: d787 c8bc b031 87bd 6580 d93d 491c e13d
000000f0: f634 babc 2090 e23d fc05 cd3d a270 043e
00000100: e375 353e 75ef b33d 682f 3f3d 55a4 d33d
00000110: 7b98 ce3c 4ca1 003c 2dfe 1e3c e261 bc3d
00000120: 7337 e63d c2c1 0e3e cbc2 f53d 8bb8 ea3d
00000130: d2b3 1b3d 91e3 313d 7ffc 823c 4956 71bd
00000140: b290 053e f0d1 74bd bc0d f73c bee0 d83d
00000150: df3a 003e 8c64 d2bc 71c3 9f3d ac0a 193e
00000160: 5c55 d13c f89e 5b3d 9087 1d3c 0569 0f3e
00000170: 254a 643d a9d1 9ebd 91df b73d 6c6c c03d
00000180: c3e5 223d 0961 ffb9 5241 ea3d 63b3 71bd
00000190: 7f41 4a3d efce 983d 34e3 f83d aa2c 623d
000001a0: ae3b 033e 5523 7d3c c9a5 b53d 9715 b43c
000001b0: b373 03bd 15f7 50bd 5ca1 3f3a 7b34 143e
000001c0: 885a 0ebd 0690 cebd 3a3b 733d c4d7 6fbd
000001d0: 9ae4 81bd 24ca 54bd ff32 3a3d 6294 07bd
000001e0: d2ac fbbc c560 b23d d238 c53d 38c5 763b
000001f0: dffa 103d b721 c7bd 33e3 253e 0592 a1bd
00000200: 1a98 a0bd d513 943d fd41 71bd 5740 3ebd
00000210: 3825 75bd 2a30 29be a1a0 0ebe 31f6 56bd
00000220: 4bbc 01be 99f0 623d f5ee b73d 22cd 0cbd
00000230: a713 8dbd e3ec 9c3d 1d7c cf3c e7d9 103e
00000240: 4b60 743c e648 55bd 318e d73c 3347 ee3c
00000250: 6d3f bc3c c88d b13d d6b5 49bd eced b53d
00000260: cb0e 343d 0fb6 4e3d adc4 f0bc a59e b83d
00000270: 6156 49bd 1e76 233d d933 8dbc 2e48 27bc
00000280: d4da 35bc 7253 773d 0eff e5bd ca68 c5bd
00000290: 06c7 be3d 4427 013d 4d3a 00bc 2810 8a3d
000002a0: 13ac 20bd a549 8bbc 536e 563d 52f1 7cbd
000002b0: 33d3 1abe 4e25 c73d 3d4c 153d 31eb a6bd
000002c0: 1f07 9cbd bc7b 873d ede4 7ebd f668 9c3d
000002d0: f3cc b43d 6996 6d3d 35d2 87bd c686 0b3d
000002e0: a60e b7bd 6ad1 d6bc 7f33 7cbc 067d 453d
000002f0: 43ce 093d 0c2a 413b bb0d e6bc d5c8 a53d
00000300: c6d2 803e d1b5 733e c46b d43d 7c24 973d
00000310: caed 843e b13a c0bd e2ce 943e cb80 133e
00000320: 6032 903e eb0e 913d 75eb c03d 80a4 3e3e
00000330: 8030 4c3e 9fbe 823e 0b21 673e adfb aa3d
00000340: 30a9 273e e28d a33d 0e8b 8d3e 215a 5d3e
00000350: f9dd 463e fce8 843e 6166 8c3e 30ae 453e
00000360: 2750 153d e544 273e 4c98 523d 5ac5 963e
00000370: eadd 1e3e f00e b23d 224e 0e3e 320d cc3d
00000380: 4b25 5d3e 8e44 6b3e 126e 833d 13fd 8f3e
00000390: 8db2 fd3d 1ff3 883e 7f89 643e 0eea 5f3e
000003a0: 0210 0d3e 1126 333e e740 5d3e 8b23 893d
000003b0: 106e 053e 54ca 623d 51db 403e 1f87 7a3e
000003c0: bd99 053e 5c99 493e a9d9 543e 8e39 253e
000003d0: 644d ea3d 2521 b73d ed14 bc3d 076e 5f3e
000003e0: f911 7f3e d1a1 fd3d 33eb 103e a986 2d3e
000003f0: 53ba 8b3e 36ca 003e 066e 3d3e 40c7 613d
