Demand_Forecasting/output/model_gru.pt (torch, 34023 bytes, 5 tensors)

gru.weight_ih_l0 f4 [150, 1]
0.53772104 0.5315383 0.3625459 0.41664064 0.3522135 0.74591225 0.28158304 0.18905856
0.49852002 -0.3184273 0.3230752 -0.45643777 -0.027234713 -0.31771228 0.25936735 0.43471023
-0.085951686 0.5707515 0.32902503 0.3006333 -0.11374629 0.6029383 0.20112392 0.45420274
0.013476125 0.5095599 0.3811892 -0.10645571 0.21134272 -0.27326825 0.5434098 0.07350131
0.49011606 0.55146825 0.35952625 0.27113488 0.29976708 -0.18211454 -0.18648386 0.01121891
0.6271606 0.40822214 0.3616797 0.25079224 -0.44183782 0.40408805 0.3219479 -0.1412893
0.535133 0.28759965 -0.36794907 0.6289901 -1.0797869 -0.8654581 -0.3150442 -0.9263162
-1.2203845 -0.8076096 -1.1329428 0.39844295 -1.0355058 0.39523852 0.23236671 0.39122352
-1.0368464 -1.1487448 -1.3226061 -0.30252182 -0.8259317 0.2318446 -1.0792934 -1.0074733
-0.7786096 -0.97925645 -1.2353386 -0.9412819 -0.8905192 -0.08190793 0.2530877 -0.5373825
0.62630516 0.10605948 -0.80488366 -0.91360676 -1.047773 -0.77646977 0.65833384 0.47070834
0.46143946 -0.36729884 0.61886907 -1.011373 -0.91621405 -1.2060697 0.39667726 -0.34758666
-1.1230078 0.65248895 -0.89214796 -0.9610407 0.22788785 0.6837058 0.7146963 -0.64035887
0.75091076 0.4336287 0.8656534 0.47172356 0.7096215 -0.12487933 -0.83544064 -0.12245396
0.058850694 0.1417333 -0.77827626 0.80740553 -0.42783934 0.21072982 -0.8322714 -0.84553885
-0.4184665 0.42046624 0.68556434 0.7321803 0.5107423 -0.64051974 0.72599876 0.3893194
-0.46986184 -0.37639 -0.6457681 -0.03400251 0.3776791 0.43839642 -0.78570724 -0.6377042
-0.36240625 -0.10258092 0.10238101 0.22877237 0.8123694 -0.7965803 -0.7849027 0.82510644
-0.12548584 -0.20974827 0.6839197 0.04817898 -0.46902606 -0.7699416
00000000: 16a8 093f e512 083f 9e9f b93e ec51 d53e
00000010: 5455 b43e 1bf4 3e3f a72b 903e 9198 413e
00000020: 043e ff3e e708 a3be 1d6a a53e 36b2 e9be
00000030: 551b dfbc 2fab a2be cccb 843e 5792 de3e
00000040: 7007 b0bd c51c 123f f875 a83e 9cec 993e
00000050: d1f3 e8bd 2a5a 1a3f 6ef3 4d3e 438d e83e
00000060: f7ca 5c3c 8572 023f 3b2b c33e 7405 dabd
00000070: 3a6a 583e d1e9 8bbe e81c 0b3f db87 963d
00000080: 7ef0 fa3e 062d 0d3f d313 b83e 31d2 8a3e
00000090: 127b 993e 3c7c 3abe a0f5 3ebe 85cf 373c
000000a0: 998d 203f 7e02 d13e 152e b93e d767 803e
000000b0: 9138 e2be a1e4 ce3e 5bd6 a43e 24ae 10be
000000c0: 7afe 083f 4340 933e d263 bcbe 7f05 213f
000000d0: 7536 8abf a98e 5dbf 794d a1be 0f23 6dbf
000000e0: 8f35 9cbf 81bf 4ebf 4504 91bf b700 cc3e
000000f0: 748b 84bf b45c ca3e 8af1 6d3e 734e c83e
00000100: 62b7 84bf 120a 93bf 284b a9bf 24e4 9abe
00000110: 4370 53bf ac68 6d3e 4926 8abf e3f4 80bf
00000120: f552 47bf 8db0 7abf 931f 9ebf daf7 70bf
00000130: 11f9 63bf 58bf a7bd b694 813e e691 09bf
00000140: 8955 203f b635 d93d db0c 4ebf 22e2 69bf
00000150: 6d1d 86bf b9c6 46bf 9188 283f af00 f13e
00000160: cb41 ec3e 980e bcbe 346e 1e3f ac74 81bf
00000170: 018d 6abf 7e60 9abf 4819 cb3e e1f6 b1be
00000180: b8be 8fbf 8409 273f cf63 64bf c306 76bf
00000190: 6f5b 693e 5807 2f3f 56f6 363f 8fee 23bf
000001a0: b03b 403f 9504 de3e 769b 5d3f c085 f13e
000001b0: c1a9 353f bcc0 ffbd 70df 55bf 24c9 fabd
000001c0: 6d0d 713d 8922 113e 1d3d 47bf 21b2 4e3f
000001d0: c20d dbbe 8fc9 573e bd0f 55bf 3c75 58bf
000001e0: 3e41 d6be 5a47 d73e 2581 2f3f 2b70 3b3f
000001f0: 02c0 023f 1af9 23bf 0edb 393f df54 c73e
00000200: bb91 f0be 31b6 c0be 0f51 25bf 3746 0bbd
00000210: 285f c13e 7f75 e03e 1c24 49bf 9540 23bf
00000220: 508d b9be f215 d2bd 23ad d13d 4e43 6a3e
00000230: 71f7 4f3f b0ec 4bbf 62ef 48bf 2d3a 533f
00000240: 5c7f 00be 40c8 56be 5d15 2f3f 5257 453d
00000250: 2f24 f0be e51a 45bf

gru.weight_hh_l0 f4 [150, 50]
0.05954583 -0.16522871 0.11593985 -0.053575028 0.12777027 0.22796607 0.226779 0.018948292
0.07925505 -0.2157014 -0.06734892 -0.3104185 -0.24502762 0.02277365 -0.21673857 0.054137386
-0.016008353 0.23995312 -0.20056966 -0.01749843 -0.12934323 0.025050003 0.121829495 0.21753107
0.19110246 -0.1794163 0.072141744 -0.1471172 -0.13349976 0.066744 0.0517837 0.273253
0.023175621 0.14627391 -0.10872763 -0.19555806 0.16774213 -0.21175434 0.16758165 0.20523213
-0.19697538 -0.06919468 -0.119900025 0.038226116 -0.06999958 -0.26825032 0.18986103 0.16554543
-0.24372664 -0.07645848 0.075657494 -0.08581629 0.092818275 -0.023308018 0.12600292 0.05225638
0.1534215 0.1501896 0.0031307538 -0.15841924 -0.15131314 -0.054091044 -0.15872154 0.04881409
-0.14597377 0.1566382 -0.21118617 0.06445902 -0.10498699 0.07798354 -0.16905172 0.12762013
0.23753917 0.008362691 0.08555165 -0.1943808 0.16760056 -0.084364265 -0.032829635 0.047739465
0.26957998 0.14414993 0.028318742 0.078636564 0.095030494 -0.014580908 0.02671368 -0.0636617
0.032893028 -0.07756903 -0.18425666 -0.02286754 -0.041968387 0.097211726 -0.10425624 0.08274532
0.18285966 0.23257655 -0.19577163 -0.013616498 0.087037906 -0.0073028663 0.060117647 -0.32127985
-0.034251187 0.09163206 0.07800045 0.14717036 0.25696224 -0.04383163 -0.18723151 -0.25308
-0.06362742 -0.03974005 0.015665462 0.20051406 -0.062462155 0.1956936 -0.04419135 -0.06881959
0.016672026 0.24503578 0.20026787 -0.0076813935 0.1192515 0.0037966538 0.13247928 -0.09981873
-0.3051795 0.20729305 0.118644424 0.024338782 0.074452445 0.06749879 -0.29164037 0.024080075
0.06368241 -0.30266413 0.08493954 0.124495745 -0.096355006 -0.24213558 -0.17273937 -0.019187178
-0.25678763 -0.2463687 0.20728374 -0.009201404 -0.226702 0.021483716 0.045605525 -0.12671787
0.17223208 -0.01929917 0.029798627 0.041221414 0.059281614 -0.056787245 0.048890702 -0.23640408
-0.11272534 -0.100149736 -0.060012203 0.028060004 -0.02999198 0.22916126 0.021041667 0.1401458
-0.041812543 0.060280774 -0.07196994 0.10030431 0.060383063 0.16666359 0.06704943 -0.00015494108
0.101961754 -0.101750396 -0.04773757 0.07929162 0.21132192 0.10803358 -0.010054893 -0.0051578186
-0.02772497 0.017442202 -0.0226293 -0.079214424 -0.020506104 -0.034651656 0.026866913 -0.0012225078
0.036009185 0.045589402 -0.2356559 -0.107239805 0.15860091 0.21296577 -0.11436164 -0.16463898
-0.07808726 -0.028823063 0.15987508 0.034853287 0.058615644 0.031555526 0.14065495 -0.07665914
-0.10844343 0.03859049 -0.098634504 -0.015086062 -0.09611833 0.03457494 -0.06847689 -0.05439888
0.10312441 0.105383866 -0.17785527 0.04789731 -0.049662642 0.05373615 -0.029719165 0.12357081
0.12311177 -0.10957223 0.16104333 -0.06958272 -0.04663786 -0.0071178437 0.0011472397 0.1848948
0.021462748 0.19396916 0.07118035 -0.124613635 0.059743084 -0.14182237 0.05150103 -0.008590536
-0.107458495 -0.115529135 -0.03198754 0.16759631 -0.093053155 -0.09707405 -0.060522784 0.11542556
0.07001194 -0.13071494 0.089056045 -0.27032664 0.20916185 0.023640823 0.12319744 0.26890272
00000000: 54e6 733d b731 29be df71 ed3d 7d71 5bbd
00000010: 36d6 023e f06f 693e c138 683e 7339 9b3c
00000020: 7950 a23d d4e0 5cbe 3bee 89bd 2cef 9ebe
00000030: 85e8 7abe ce8f ba3c b7f0 5dbe 2abf 5d3d
00000040: f323 83bc 45b6 753e 2262 4dbe de58 8fbc
00000050: 8d72 04be aa35 cd3c be81 f93d 77c0 5e3e
00000060: 5db0 433e e8b8 37be 0dbf 933d e4a5 16be
00000070: 29b4 08be 14b1 883d 251b 543d d1e7 8b3e
00000080: cdda bd3c d4c8 153e 97ac debd 5f40 48be
00000090: 98c4 2b3e 21d6 58be 869a 2b3e 5f28 523e
000000a0: eab3 49be f1b5 8dbd 258e f5bd fd92 1c3d
000000b0: f15b 8fbd 1b58 89be ee6a 423e be84 293e
000000c0: 7a93 79be 4396 9cbd 51f2 9a3d 73c0 afbd
000000d0: 8217 be3d 75f0 bebc e906 013e c90a 563d
000000e0: 871a 1d3e 4dcb 193e 552d 4d3b a738 22be
000000f0: d5f1 1abe 928e 5dbd e687 22be 49f1 473d
00000100: 267a 15be c465 203e 3041 58be 1703 843d
00000110: 6b03 d7bd d6b5 9f3d e51b 2dbe daae 023e
00000120: 783d 733e ab03 093c b435 af3d c30b 47be
00000130: 7b9f 2b3e 2cc7 acbd 5e78 06bd 758a 433d
00000140: 6306 8a3e 0a9c 133e b5fc e73c 350c a13d
00000150: 599f c23d c3e4 6ebc a6d6 da3c 1161 82bd
00000160: d7ba 063d 83dc 9ebd c7ad 3cbe b554 bbbc
00000170: 0be7 2bbd f116 c73d 4c84 d5bd 6176 a93d
00000180: 903f 3b3e 8c28 6e3e 5c78 48be bb17 5fbc
00000190: ee40 b23d e24c efbb ec3d 763d cb7e a4be
000001a0: f94a 0cbd 97a9 bb3d b3be 9f3d d4b3 163e
000001b0: 8e90 833e cc88 33bd 9eb9 3fbe b493 81be
000001c0: 184f 82bd 76c6 22bd db54 803c 8f53 4d3e
000001d0: 51d8 7fbd e763 483e fd01 35bd 49f1 8cbd
000001e0: c693 883c a9ea 7a3e 0513 4d3e 33b4 fbbb
000001f0: 213a f43d 48d1 783b a6a8 073e c36d ccbd
00000200: 7d40 9cbe a144 543e d9fb f23d 2062 c73c
00000210: 867a 983d ce3c 8a3d e351 95be 9443 c53c
00000220: ec6b 823d cbf6 9abe c8f4 ad3d a0f7 fe3d
00000230: c655 c5bd 64f2 77be 97e2 30be 6e2e 9dbc
00000240: ab79 83be 1448 7cbe 3042 543e 7cc1 16bc
00000250: 9224 68be 9efe af3c dccc 3a3d 54c2 01be
00000260: 9b5d 303e 4b19 9ebc 401c f43c c9d7 283d
00000270: 47d1 723d be99 68bd 9e41 483d e913 72be
00000280: 8bdc e6bd 4e1b cdbd 5bcf 75bd 18de e53c
00000290: beb1 f5bc 40a9 6a3e 935f ac3c 6182 0f3e
000002a0: a143 2bbd f9e8 763d fa64 93bd 596c cd3d
000002b0: 3b54 773d dca9 2a3e 3651 893d ae77 22b9
000002c0: 53d1 d03d 8362 d0bd 7888 43bd a563 a23d
000002d0: c664 583e b640 dd3d 47bd 24bc eb02 a9bb
000002e0: 7a1f e3bc f3e2 8e3c 1561 b9bc 2c3b a2bd
000002f0: 6bfc a7bc e5ee 0dbd 0018 dc3c 8e3c a0ba
00000300: 5e7e 133d f4bb 3a3d c84f 71be 8ba0 dbbd
00000310: 4768 223e b313 5a3e 6f36 eabd 1f97 28be
00000320: 37ec 9fbd 581e ecbc 4bb6 233e 52c2 0e3d
00000330: f516 703d 5e40 013d da07 103e 78ff 9cbd
00000340: 9717 debd 1011 1e3d e300 cabd 882b 77bc
00000350: b0d9 c4bd 749e 0d3d 9d3d 8cbd 5cd1 5ebd
00000360: e432 d33d 7fd3 d73d b11f 36be f82f 443d
00000370: 0e6b 4bbd 701a 5c3d 9b75 f3bc b112 fd3d
00000380: 0622 fc3d 6867 e0bd 8be8 243e 6381 8ebd
00000390: 5707 3fbd cd3c e9bb fa5e 963a 1055 3d3e
000003a0: a5d2 af3c da9f 463e 01c7 913d 6f35 ffbd
000003b0: 2ab5 743d e239 11be bef2 523d 52bf 0cbc
000003c0: 3313 dcbd 8a9a ecbd 5e05 03bd 5e9e 2b3e
000003d0: a792 bebd c2ce c6bd bde6 77bd 3c64 ec3d
000003e0: 6c62 8f3d 23da 05be 0463 b63d 4168 8abe
000003f0: 862e 563e 66aa c13c f04e fc3d 9ead 893e

gru.bias_ih_l0 f4 [150]
0.37540036 0.31432787 0.201451 0.3276953 0.044452913 0.6425743 0.40930763 0.26090583
0.41611886 -0.60618514 0.21795385 -0.5940137 0.65858316 -0.36104745 0.39087918 0.34409842
-0.156585 0.29168123 0.31489244 0.6790222 -0.06520975 0.531441 0.157522 0.33795437
-0.11807156 0.47049242 0.38918522 0.3899684 0.198289 0.15356039 0.51590496 0.119296305
0.49644244 0.07871706 0.36375573 0.38508633 0.48614264 -0.10930361 -0.00553609 0.2335885
0.25445524 0.17268132 0.35918853 0.45651296 -0.52488095 0.15135476 0.31248507 0.49355447
0.48485297 0.15561567 -0.36845613 -0.060338344 -0.6201653 -0.57096446 -0.57348096 -0.85319495
-0.8752456 -0.60411596 -0.7130935 0.30156177 -0.71808594 0.33225453 0.32142475 -0.020175636
-0.8708141 -0.8429925 -0.88062453 -0.31941566 -0.911097 -0.041255005 -0.9196008 -0.71285754
-0.45840767 -0.80955523 -0.9190648 -0.5617561 -0.73026603 1.2454147 0.36184177 0.15421419
-0.05478257 -0.15480003 -0.54039013 -0.50997084 -0.86594814 -0.56350833 0.4039922 0.48680136
0.42738107 -0.06938605 0.11056772 -0.77417564 -0.85081464 -0.7910738 0.25129837 -0.16771406
-0.8190931 0.4930793 -0.7703641 -0.74797916 0.55894816 0.90096223 0.52349156 -0.48216736
0.4075868 0.42765975 0.6585887 0.7181433 0.65641254 0.13594964 -0.41215038 -0.0065234965
0.7136464 -0.31948367 -0.63904274 0.50351053 -0.07138806 0.4608838 -0.42930764 -1.2214499
0.040902432 0.6255971 0.33665165 0.62842757 0.103047594 -0.5932148 0.42342633 -0.27897257
-0.5124089 0.352164 -0.9678062 0.16686533 0.49285573 0.29116297 -0.5883908 -0.5399536
-0.62789667 0.34979036 -0.32412612 -0.17061909 0.697539 -0.62391186 -0.38212806 0.606049
0.11937373 -0.36344007 0.6272625 -0.73912394 -0.6871489 -0.5800121
00000000: 7a34 c03e 95ef a03e 2c49 4e3e aec7 a73e
00000010: 4214 363d c07f 243f c590 d13e 7395 853e
00000020: 880d d53e f32e 1bbf 4b2f 5f3e 4811 18bf
00000030: e898 283f 36db b8be 5121 c83e ab2d b03e
00000040: d157 20be 3e57 953e 9539 a13e 66d4 2d3f
00000050: b08c 85bd 840c 083f 724d 213e 5b08 ad3e
00000060: 81cf f1bd 62e4 f03e 4943 c73e f0a9 c73e
00000070: 460c 4b3e ef3e 1d3e 5912 043f 9f51 f43d
00000080: b42d fe3e 6936 a13d 313e ba3e 092a c53e
00000090: b0e7 f83e 92da dfbd 1768 b5bb d331 6f3e
000000a0: f547 823e 5fd3 303e 8fe7 b73e 11bc e93e
000000b0: 995e 06bf befc 1a3e 0bfe 9f3e 2cb3 fc3e
000000c0: a63e f83e b759 1f3e 48a6 bcbe 5725 77bd
000000d0: 27c3 1ebf ba2a 12bf a6cf 12bf fc6a 5abf
000000e0: 1810 60bf 58a7 1abf 4c8d 36bf 4e66 9a3e
000000f0: 7bd4 37bf 441d aa3e c991 a43e 6047 a5bc
00000100: aced 5ebf 5bce 57bf 9c70 61bf 738a a3be
00000110: a73d 69bf 02fb 28bd f56a 6bbf d57d 36bf
00000120: 69b4 eabe 033f 4fbf d547 6bbf 3fcf 0fbf
00000130: b7f2 3abf c069 9f3f 5343 b93e 53ea 1d3e
00000140: b063 60bd e683 1ebe 0257 0abf 738d 02bf
00000150: c7ae 5dbf 1542 10bf 11d8 ce3e 073e f93e
00000160: b1d1 da3e 461a 8ebd 5471 e23d 6030 46bf
00000170: fdce 59bf d083 4abf 2eaa 803e 3cbd 2bbe
00000180: 16b0 51bf e474 fc3e 9536 45bf 907b 3fbf
00000190: 3a17 0f3f 76a5 663f 8b03 063f a4de f6be
000001a0: 38af d03e 38f6 da3e 4599 283f 3dd8 373f
000001b0: a70a 283f 6236 0b3e 6005 d3be 0ec3 d5bb
000001c0: 88b1 363f 5d93 a3be 4e98 23bf 11e6 003f
000001d0: e733 92bd f6f8 eb3e 36ce dbbe 7858 9cbf
000001e0: 4f89 273d 2227 203f 9b5d ac3e a1e0 203f
000001f0: 9e0a d33d eddc 17bf 56cb d83e 7ed5 8ebe
00000200: 3b2d 03bf d74e b43e 26c2 77bf bfde 2a3e
00000210: 9657 fc3e 5013 953e c8a0 16bf 663a 0abf
00000220: d6bd 20bf b917 b33e dcf3 a5be c5b6 2ebe
00000230: ea91 323f b0b8 1fbf 4aa6 c3be 0726 1b3f
00000240: 377a f43d d114 babe 4694 203f 3a37 3dbf
00000250: fee8 2fbf ac7b 14bf

gru.bias_hh_l0 f4 [150]
0.300983 0.33981392 0.29692188 0.40952194 0.23250087 0.43949968 0.350203 0.44497067
0.41523767 -0.54011196 0.049949832 -0.6073588 0.74774075 -0.3964398 0.26864251 0.30836996
0.019424766 0.32629934 0.2853157 0.5513177 -0.15323886 0.6195533 0.17440768 0.45377743
-0.098711655 0.46911675 0.32559472 0.28054804 0.35904658 0.3789867 0.53475577 0.100091
0.5584018 0.18115155 0.35738516 0.27556083 0.6799982 -0.098136954 0.07474327 0.070447065
0.213063 0.2356088 0.31144696 0.36703938 -0.6396089 0.29507253 0.39699402 0.35132283
0.4770698 0.24254344 -0.48540384 0.009959631 -0.62966806 -0.6268709 -0.5937931 -0.62877655
-0.78478485 -0.5741657 -0.8680043 0.2624023 -0.69509345 0.3123929 0.25305298 0.19482534
-0.63212967 -0.6763818 -0.8999914 -0.2984106 -0.8987029 -0.060613405 -0.80817926 -0.6566772
-0.565214 -0.65922683 -0.6763604 -0.688602 -0.832054 1.2923154 0.3628238 0.1035053
0.11345289 0.012455386 -0.57590204 -0.47738257 -0.6932309 -0.68514866 0.4026812 0.38256526
0.5075627 -0.065565266 0.13829 -0.6015182 -0.6644464 -0.85830396 0.3508325 -0.24165988
-0.69786084 0.37277538 -0.7203186 -0.76959443 0.5217845 0.70423096 0.45363358 -0.6353634
0.32716113 0.5324125 0.4266138 0.48389986 0.8183678 0.18064743 -0.295822 0.118939795
0.76882076 -0.20916718 -0.6650706 0.6097594 -0.4398577 0.5649466 -0.63580817 -0.92075455
-0.37589926 0.55072874 0.28123254 0.58549976 0.34861284 -0.62218934 0.48837414 -0.31457305
-0.5894307 0.49323246 -0.87476075 0.07115254 0.49635 0.4140184 -0.6128453 -0.33703676
-0.74758506 0.40156913 -0.40932962 -0.15007894 0.6980077 -0.589002 -0.5750616 0.64741147
0.152762 -0.13956563 0.6557233 -0.6491879 -0.689897 -0.42473724
00000000: 721a 9a3e 17fc ad3e 2506 983e dcac d13e
00000010: b514 6e3e 1a06 e13e cf4d b33e 32d3 e33e
00000020: 089a d43e c744 0abf 3298 4c3d de7b 1bbf
00000030: f06b 3f3f 28fa cabe 838b 893e abe2 9d3e
00000040: b020 9f3c b510 a73e e614 923e 2823 0d3f
00000050: a6ea 1cbe 0c9b 1e3f ed97 323e 8455 e83e
00000060: 5629 cabd 1230 f03e 5ab4 a63e fea3 8f3e
00000070: f4d4 b73e 8b0a c23e c1e5 083f 83fc cc3d
00000080: 6cf3 0e3f cb7f 393e 30fb b63e 4f16 8d3e
00000090: 5d14 2e3f 07fc c8bd 0013 993d 8d46 903d
000000a0: 302d 5a3e 6f43 713e fa75 9f3e 96ec bb3e
000000b0: 69bd 23bf bf13 973e cd42 cb3e 96e0 b33e
000000c0: 7e42 f43e 4f5d 783e da86 f8be b82d 233c
000000d0: ed31 21bf 9c7a 20bf d302 18bf 80f7 20bf
000000e0: a9e7 48bf 86fc 12bf 8835 5ebf 9859 863e
000000f0: a5f1 31bf f6f1 9f3e 2990 813e 4b80 473e
00000100: 40d3 21bf 5c27 2dbf d665 66bf 46c9 98be
00000110: 6511 66bf c345 78bd d6e4 4ebf ff1b 28bf
00000120: ddb1 10bf 17c3 28bf f525 2dbf 3848 30bf
00000130: 7e01 55bf 976a a53f 0bc4 b93e 96fa d33d
00000140: fd59 e83d ad11 4c3c 516e 13bf 7d6b f4be
00000150: 9577 31bf e765 2fbf 3b2c ce3e 98df c33e
00000160: a1ef 013f 1547 86bd e59b 0d3e 19fd 19bf
00000170: 2919 2abf cfb9 5bbf 51a0 b33e b075 77be
00000180: 02a7 32bf 6adc be3e cd66 38bf 2404 45bf
00000190: ab93 053f 7b48 343f a942 e83e 2da7 22bf
000001a0: aa81 a73e 304c 083f 206d da3e b9c1 f73e
000001b0: 8d80 513f a4fb 383e fb75 97be b596 f33d
000001c0: 70d1 443f ec2f 56be 1142 2abf 3119 1c3f
000001d0: 0735 e1be 57a0 103f 53c4 22bf 92b6 6bbf
000001e0: de75 c0be 8ffc 0c3f b6fd 8f3e 50e3 153f
000001f0: 627d b23e cd47 1fbf 2d0c fa3e b80f a1be
00000200: eee4 16bf f788 fc3e 52f0 5fbf 6cb8 913d
00000210: 9621 fe3e 38fa d33e 6ee3 1cbf 1590 acbe
00000220: bc61 3fbf 789a cd3e a793 d1be 4bae 19be
00000230: a2b0 323f d6c8 16bf 3d37 13bf c2bc 253f
00000240: a46d 1c3e 4bea 0ebe 7bdd 273f 2e31 26bf
00000250: 179d 30bf 2977 d9be

fc.weight f4 [1, 50]
1.4233057 -1.1823822 1.4935164 -1.4370749 1.5370932 1.4463277 1.5518003 1.4003229
1.4212766 -0.9509453 -1.4917006 -1.1760195 -0.89397657 1.0735589 -1.4446919 1.4228249
-1.4057263 1.4937245 -1.4911427 1.5260261 -1.4183927 1.4878936 1.44577 1.5559704
1.5461614 -1.5206738 1.5304046 1.3860308 -1.167533 -1.6291807 1.194908 1.5212737
1.5133326 1.5334768 -1.3846328 -1.5315566 0.8658158 -0.9300066 0.90265656 1.4819537
-1.3051627 -1.4192924 -1.4461501 1.477144 -1.1790965 -1.4679312 1.4627218 0.7078862
-1.4249822 -1.5406464
00000000: e22e b63f 4d58 97bf 8c2b bf3f 12f2 b7bf
00000010: 78bf c43f 4421 b93f 64a1 c63f c83d b33f
00000020: 64ec b53f 2771 73bf 0cf0 bebf cf87 96bf
00000030: a6db 64bf 616a 893f aaeb b8bf 201f b63f
00000040: d7ee b3bf 5d32 bf3f c4dd bebf d354 c33f
00000050: e48d b5bf 4c73 be3f fe0e b93f 0a2a c73f
00000060: 9ee8 c53f 70a5 c2bf 4ce4 c33f 7569 b13f
00000070: b971 95bf fe88 d0bf bff2 983f 19b9 c23f
00000080: e2b4 c13f f848 c43f a63b b1bf 0c0a c4bf
00000090: 1ba6 5d3f ea14 6ebf 8014 673f a9b0 bd3f
000000a0: 920f a7bf 60ab b5bf 721b b9bf 0e13 bd3f
000000b0: a2ec 96bf 2be5 bbbf 783a bb3f 0838 353f
000000c0: d165 b6bf e733 c5bf
