Demand_Forecasting/output/model_mlp.pt (torch, 742034 bytes, 19 tensors)

fc1.weight f4 [512, 30]
00000000: 77ed e5bb 3c31 16bd bda1 53be 1637 20be
00000010: ac24 25bc 5d7a 1b3e c086 9a3d 4897 cf3d
00000020: 8a35 ef3b 3e6c 2b3e b2dd 463e c108 b93d
00000030: ab1a ac3c 4c11 7dbd c04c 01be b48c b4bd
00000040: b703 3cbd ac43 2a3e 750c 14bd 450b 88bd
00000050: 1317 bbbd b535 eb3b 1195 91bd 63bd b9bd
00000060: e854 c93d 1912 d03d 9737 cdbd 33a6 f4bb
00000070: 90d1 6fbe 6f5c dabb 1f1c 14be 7a03 88bd
00000080: d2e6 0ebe 9563 32be 7ea2 9cbc 2633 55bd
00000090: 8b90 0d3d 9351 533c a384 0b3e 75b2 ccbd
000000a0: 5074 823c 0089 0abe 87dc 223c 37e3 febb
000000b0: ec4e a53d 7442 9dbd a237 913d 1ea6 32bd
000000c0: 4e89 25be 5751 06bc 035b e93c f52a 3d3e
000000d0: 86d6 cb3d 456b a33c dc10 88bd a7dd 6f3d
000000e0: dc5d 703b 6365 4c3d a3a7 853e e440 843d
000000f0: 4db9 393d 752d 873d de91 4cbe c60c beba
00000100: d414 16bd e2b2 31be 6e1a 3ebe d7a0 5abe
00000110: 4000 e739 48a5 a93d 6f41 3a3d 7c07 90bd
00000120: 5baa 23be a6ee 3b3d b045 2abe f9eb cbbc
00000130: 80a1 c7bd 76c1 e9bd 45c4 aabd d66b b6bd
00000140: 52c4 e9bb cb61 54bd 293f ccbd 1709 1f3d
00000150: 5fa9 81bd c03f ac3b 2134 a33d 766d 893d
00000160: d63b 40be b88e eebd 7a0c 5cbe e74a 1c3d
00000170: abe2 82bc 151d 6bbd 818c 18bd 9be5 f2bc
00000180: 788a 3d3d 73e2 29be b2e0 afbc 2bdc f8bd
00000190: 0e1e dc3d 296c f23d 77af a93c 47d7 12bd
000001a0: 1936 a4bd f712 77be ae78 ef3d 7840 15be
000001b0: 9054 773d 996d c73d a001 033e eda9 98bd
000001c0: 3927 87bd 4324 b73d 3f01 d63c 0326 88bd
000001d0: b1c1 803d 3888 043e a9a0 0f3d 5299 413d
000001e0: 601e 58be de7d 39bd a56b 373e 5855 93bd
000001f0: 3437 823c 61f1 0fbe 245b 803e 36d2 3abe
00000200: d103 dd3a f602 973d be08 c73d 4c36 613d
00000210: e33d 053d 33f0 443e 4f46 3fbe 207e 953d
00000220: 3faf bbbd 6684 1cbe 5794 1d3d bf21 d93d
00000230: aa79 133e 42fe ebbd cf86 953d 23f2 bdbd
00000240: 19f9 ba3c 860d b43d 50de e93d 6d0b 6d3d
00000250: 57d0 6fbe e303 3cbe e306 1c3e 107c 413e
00000260: 53e9 e0bc b889 74bc d63e 6abc 6c0c 3c3e
00000270: 50ff 353e 208b 023e ae9a 26bc 7c50 11be
00000280: 9774 503e 2479 d13d 913d a23d 3bdd e43d
00000290: 42f5 243e 285c 15be c800 173e a1fb dc3d
000002a0: 7e71 af3d 5c5b c0bd 474b 123c b6c1 253e
000002b0: a275 123d da35 e13d dd0c 6b3d a82c 84bd
000002c0: 0176 063e 75d6 243e a2e0 3bbe 01fd 3d3d
000002d0: d21d 1a3e 4aec 413c 4c42 15be 3c08 ae3d
000002e0: c62d 103e 97f4 593d 30f4 483e 692b 9abc
000002f0: 321e 60be 5ecb ac3d 2fe2 793d 56c8 a63d
00000300: ceb4 6e3d 6ef2 393e 4fdf 393d 96ca 85bc
00000310: 19db 923b 1640 1bbc fbf1 00be ad8d c63d
00000320: 7923 11be 229e 5f3d f0d2 573d c7ac e53d
00000330: 5285 3bbe c33f af3d 715f 1f3e b4bb e2bd
00000340: b05b e0bd 2cd6 0dbe 0a93 21be 0a23 e93d
00000350: 85f0 ed3b ee48 9fbc 7b7b 983d 3646 313d
00000360: 17e5 da3d 63a8 29be 8646 cfbd 9224 063d
00000370: 816b b3bd 00bd 0d3d 515e ad3d 95fd 983d
00000380: 965f 01bc b247 b2bd 9af0 8b3c fe2a 15bd
00000390: 1728 fb3c cac7 c93d dc48 0c3e 06a8 91be
000003a0: 5674 073e 3a62 cdbc 15cf 4cbd a9f2 cc3c
000003b0: 29eb c83d 9893 233e 7d66 57be 9016 98bd
000003c0: 40c0 9a3d ac8d 16be c2c8 7cbe 4ef1 66bd
000003d0: d058 89bd 34eb 7b3d 57dd abbd 6a14 b3bd
000003e0: d338 a3bd 7446 cf3c 55cd f0bd 8d79 00bd
000003f0: f5c2 05bc da3b 98bd c4c2 8cbc b366 613d
-0.0070168334 -0.036668047 -0.20667167 -0.15646014 -0.010079544 0.15183397 0.07545233 0.101362765
0.0073000835 0.1674051 0.19420508 0.09034873 0.02100881 -0.061784074 -0.12626934 -0.088158995
-0.04590198 0.16627377 -0.036144692 -0.066427745 -0.091352604 0.0071780332 -0.0710851 -0.09069326
0.09830648 0.10159702 -0.100203685 -0.0074661016 -0.23419785 -0.006663851 -0.14463852 -0.06641288
-0.13955238 -0.174208 -0.019120451 -0.052050732 0.034561675 0.012897867 0.13624816 -0.099949755
0.015924603 -0.13528824 0.009940273 -0.007778551 0.08071694 -0.076786906 0.07090689 -0.043615453
-0.16165659 -0.008198104 0.02848578 0.18473418 0.099530265 0.019948611 -0.06643841 0.058560994
0.0036677038 0.049901377 0.2610446 0.064576894 0.045342732 0.06600467 -0.19977519 -0.0014499656
-0.036640957 -0.17353395 -0.1856477 -0.21350418 0.0004405994 0.08283478 0.04547256 -0.070326775
-0.15982954 0.04588189 -0.16628146 -0.024892794 -0.097476006 -0.11413853 -0.08338217 -0.08907287
-0.007133999 -0.051851075 -0.09972984 0.038827028 -0.06331133 0.005256623 0.07968927 0.06710331
-0.18772826 -0.11648315 -0.21489134 0.03815737 -0.015977224 -0.05740078 -0.03724337 -0.0296505
0.046274632 -0.1659029 -0.021469448 -0.12151369 0.1074792 0.11837036 0.020713551 -0.035849836
-0.08018131 -0.24128328 0.1169294 -0.14575374 0.06038338 0.09737701 0.12793589 -0.07454286
-0.06599278 0.08942463 0.026123641 -0.06647875 0.06286944 0.12942588 0.035065327 0.04726536
-0.21105337 -0.045286052 0.17912157 -0.071940124 0.015895464 -0.14056922 0.25069535 -0.18244252
0.0016862099 0.07373612 0.09718464 0.054983422 0.032529723 0.19232254 -0.18679164 0.07299447
-0.09164285 -0.15284881 0.038471546 0.1060214 0.1440188 -0.11523105 0.07301103 -0.092746995
0.022823857 0.08791642 0.11419356 0.057872225 -0.23419319 -0.18360858 0.15237002 0.18894982
-0.027455008 -0.014925413 -0.014297208 0.18364114 0.17773175 0.12748384 -0.010168714 -0.14190859
0.20356975 0.10228184 0.07921899 0.11175009 0.16109183 -0.14585936 0.14746392 0.10790182
0.08566569 -0.093924254 0.00892908 0.16187176 0.035756715 0.109965995 0.057385314 -0.0645383
0.13130952 0.16097434 -0.1834741 0.04638386 0.15050438 0.011836121 -0.14576072 0.08497664
0.14079961 0.053211775 0.196244 -0.018819528 -0.21886519 0.08437227 0.06100672 0.0814368
0.058277898 0.18158886 0.04537898 -0.016331952 0.004481685 -0.0094757285 -0.12592308 0.09694991
-0.14173688 0.054594167 0.0526914 0.11214595 -0.18312576 0.085570835 0.15563752 -0.11070958
-0.10954988 -0.13851231 -0.15778747 0.11383636 0.007261338 -0.019443955 0.07445427 0.04327985
0.10688227 -0.1656814 -0.10120873 0.03274972 -0.08760739 0.034604073 0.08465255 0.07470242
-0.007896325 -0.08705081 0.017082501 -0.036417954 0.030658765 0.0985256 0.13699669 -0.28448504
0.13227972 -0.025071252 -0.050002176 0.025018053 0.09810478 0.15974271 -0.2103519 -0.074261785
0.075562 -0.14702481 -0.24685958 -0.05638247 -0.06706393 0.061503604 -0.083918266 -0.08744128
-0.07969823 0.02530215 -0.11757914 -0.03136592 -0.008164157 -0.07433291 -0.017182715 0.055029582

fc1.bias f4 [512]
00000000: 8312 603d 571d adbd 8a74 97bc 68f9 373d
00000010: d20d 323e aec3 45bd ed63 c03c 3373 35be
00000020: f1fd bfbb 6089 5cbd 8b10 2cbe 7d12 1ebe
00000030: c8ab 023e 768c e43d e3ee f13d 8e68 e1bd
00000040: 1276 e8bd b3b2 f83d 3282 89bc b30b 0e3e
00000050: e091 b0bd fba5 a6bc 4415 20be 9158 f2bd
00000060: 2a75 d03d d143 9a3d 75e8 c13d bbbe 203e
00000070: 086a 393d 97fb 933d 122b 13be 0687 f43c
00000080: b39d 293e 4e23 a03d 4fc7 20be e6a8 253e
00000090: 5222 323e 9a09 163e b16c 07be be92 16be
000000a0: a2ce a6bd cf11 08be 6f53 cabd f81f f0bc
000000b0: 3e10 c23d 41e0 04be 72bd 853c c901 ee3d
000000c0: 9cc1 423d 9634 69bd b4bf f4bd 0a8f 8d3c
000000d0: 8b51 d8bd 92ff bf3d 2b4f bdbd 2266 24bd
000000e0: 0ba0 9d3d 0902 12be a91e 6abd d280 88bc
000000f0: 7ace 83bd d3f3 bbbd 3837 09bc 7f82 0b3e
00000100: 92fc 0b3e 276a b039 4d09 d5bd 29e0 043e
00000110: 08bd 043d 03c8 d7bc 5200 223e 24fd 493c
00000120: b815 19be f544 83bc e3fa c7bd 4457 eebb
00000130: a5b8 243e abba b2bd b62c 1bbe d280 8c3d
00000140: f26b 6fbd 4847 d63d 592d 453d 1df5 7b3c
00000150: 7716 9abc 676f c0bd a165 9f3d 95d8 983d
00000160: 5ec3 b33d 24f0 95bd 7052 1d3e 412f 013e
00000170: ddbe b7bd 8136 21be 6c3b 1b3e 953e a5bc
00000180: 98c9 11bd b0b2 f3bd 004c 6d3d 599f 06be
00000190: c824 2bbe 6932 a03d d99b 1abd 9c52 e7bd
000001a0: f981 14be af97 e0bd 32e0 083e ab25 e83c
000001b0: b5e0 a53d e095 9e3d ab1f 543d 9d0b 853c
000001c0: d09f d33d 4485 ba3d fd51 333d 36e1 e53d
000001d0: 1c93 9ebd a02d b0bd 27e2 363e d480 09bd
000001e0: ca4f f13d 8224 2b3e 429e 28be 9b77 7ebd
000001f0: 5624 21bd aba4 1bbc 7137 1a3e 82b0 69bb
00000200: eea7 66bd 1bc1 83bc 1a2d b53d 0323 27be
00000210: 4a93 d73c c04b a2bc df4d af3d 7d28 c03d
00000220: 951c f23d 8fab 883d 4a7e 393e 3c8e 32be
00000230: 7324 e5bd 9626 b23d 47cf 213e 63dc da3d
00000240: 73ad 7d3d aa35 17be f0a2 243e 0f41 d33d
00000250: a8f1 2d3d 6de7 cb3c cbbd 21bd 7c26 dbbc
00000260: 0e5a 533d b67f 06be 445d 27be 52a3 1c3e
00000270: 626a 693d 96f0 7c3d f065 1abe 896e babd
00000280: f0b8 1a3e 6c64 363d 831a a33d f968 113e
00000290: d160 a53d e353 e43d d179 14be 6664 e5bd
000002a0: 57c6 f0bd a4c4 153e 3dbc 733c 1309 0abe
000002b0: 8bd7 88bc fbbd 8cbd a230 d53d 3496 09be
000002c0: 1659 0bbe a77e b43d 8f0b 753c 7db7 c43c
000002d0: e034 0fbe 427a 0dbe 8f73 a53c 1d0e eabd
000002e0: 2f7c 1fbe 2a43 0d3e 1330 07bd 860a 2c3e
000002f0: c488 f6bc 49c5 e03c 108b 01bd ded1 d7bd
00000300: 87da 13be 8a4e 80bd ad95 e7bc 3b2c 45bd
00000310: f3e3 13be 25f8 213e a793 01be 8f31 1c3e
00000320: d8a9 59bd cb9c 0e3e 7a42 07bc 1217 1c3e
00000330: 3d79 313c a8ba 0d3c c100 89bd 1589 1f3d
00000340: 420d 9abd 84dc 92bb ebd6 27be cd2a b43d
00000350: 6b6e a0bd 312b f03d ba7b 2cbe 0d52 81bd
00000360: 9cb9 b8bb bd44 693d 2ecf c43a 472e 043d
00000370: 0b81 46bd 2b97 e33d b3a1 c3bd 8b33 ee3d
00000380: 90c0 7a3b 80f4 21bd 96d1 36be 7af8 a83a
00000390: 39d4 a4bb 6b71 763c da99 dfbd eddd a8bd
000003a0: 550e 20bd 8f78 4ebd 6639 f8bd e6a9 193e
000003b0: 2321 babd 48d5 09be b946 7abd 68a2 77bd
000003c0: a6f4 6dbd 0fb1 c83b 18a4 9f3c 1dbb c23d
000003d0: 9218 6abc 3975 863d 5a95 933d 03d4 833c
000003e0: 4533 ab3d e74c 2a3e 488a 35bd 9c55 033e
000003f0: a318 9a3b bcba d43d 2873 923d 7bc4 683b
0.054705154 -0.08452862 -0.018488187 0.044915587 0.17388085 -0.048282318 0.023485148 -0.17719726
-0.0058591296 -0.05384195 -0.16803186 -0.1543674 0.12760842 0.11159603 0.11813142 -0.1100627
-0.11350645 0.12143459 -0.016785715 0.1387165 -0.086215734 -0.020342818 -0.15633112 -0.11833299
0.10178597 0.07532466 0.09468166 0.15697758 0.045267135 0.07225721 -0.14371899 0.02984954
0.16564064 0.07819234 -0.1570103 0.16177711 0.17395905 0.146521 -0.13225056 -0.14704415
-0.08144881 -0.13288043 -0.09879195 -0.029312119 0.09475754 -0.12976171 0.016325686 0.11621434
0.04754792 -0.056934915 -0.11950627 0.01728012 -0.10562428 0.09374918 -0.09243616 -0.040136464
0.076965414 -0.14258589 -0.057158146 -0.016662989 -0.06435867 -0.09177365 -0.008374982 0.13623999
0.13670567 0.00033648426 -0.104021646 0.12976135 0.032406837 -0.02634049 0.15820435 0.01232842
-0.14949691 -0.016024092 -0.0976465 -0.0072735865 0.16086061 -0.0872701 -0.15153775 0.06860508
-0.058452554 0.104628146 0.04813895 0.015378264 -0.01880954 -0.09396248 0.07783056 0.07463185
0.08777498 -0.07321194 0.15363479 0.12615682 -0.08971951 -0.15743448 0.15159386 -0.020171443
-0.035592645 -0.11899316 0.057933807 -0.13146724 -0.1671325 0.07822115 -0.037746284 -0.11295053
-0.14502706 -0.10966431 0.13366774 0.028338274 0.080995 0.0774343 0.051788013 0.01624089
0.10333216 0.0910745 0.043779362 0.11224596 -0.07742903 -0.08602452 0.17859708 -0.033570126
0.11782797 0.16713145 -0.1646662 -0.062125783 -0.039341293 -0.009499709 0.15060212 -0.0035658185
-0.056312494 -0.01608329 0.08846493 -0.1632195 0.02631535 -0.019811511 0.085597746 0.093827225
0.11821858 0.06673347 0.18114582 -0.1743707 -0.11188593 0.08698766 0.15801726 0.10686567
0.061932992 -0.14766565 0.1607778 0.10315143 0.04246679 0.024890626 -0.03948764 -0.02675175
0.051599555 -0.13134655 -0.16344172 0.15296677 0.05698622 0.061752878 -0.15077949 -0.09103114
0.1510961 0.044529364 0.07964041 0.142002 0.08075107 0.111488126 -0.14499594 -0.1120079
-0.1175658 0.14625794 0.0148764225 -0.13480024 -0.016704341 -0.068721734 0.104096666 -0.13436204
-0.13608202 0.088132195 0.014956369 0.024013275 -0.13985014 -0.13816169 0.020196704 -0.11428473
-0.15574716 0.13795152 -0.03300483 0.1680089 -0.030094512 0.027437823 -0.03162676 -0.10538076
-0.1443883 -0.0626498 -0.028269613 -0.048137885 -0.14442424 0.15817316 -0.12653981 0.1525328
-0.05314049 0.13927 -0.008255595 0.15243176 0.010832128 0.008650459 -0.06689597 0.03894909
-0.0752206 -0.004481854 -0.16390578 0.08797226 -0.078335606 0.11726988 -0.16844073 -0.06314478
-0.0056373607 0.05695032 0.0015015358 0.032270696 -0.04846291 0.111128174 -0.09552326 0.11630925
0.003826175 -0.039539814 -0.17853388 0.0012891435 -0.0050301817 0.015041689 -0.10918017 -0.08245454
-0.039076168 -0.050407942 -0.12120323 0.15006217 -0.090883516 -0.13460267 -0.061102603 -0.060457617
-0.058094643 0.0061246227 0.019487426 0.09508345 -0.014288085 0.06565327 0.07206221 0.016092306
0.08359388 0.16630898 -0.04432133 0.12825626 0.004702644 0.10387179 0.071508706 0.0035517502

bn1.weight f4 [512]
00000000: 04d3 803f 06cb 6f3f 4615 5e3f f0aa 713f
00000010: 74ca 813f 6568 533f 9451 723f 6eac 863f
00000020: 59f8 803f 6e34 4e3f b038 5e3f de4e 663f
00000030: 9696 533f 88e5 7d3f f67f 823f 54a6 793f
00000040: 355e 853f 1e73 793f a7d2 823f 2d8e 613f
00000050: 631c 6d3f 220f 7d3f 465b 703f f795 793f
00000060: 863b 653f dd74 743f 06a9 723f 0c44 853f
00000070: b87c 783f cbbe 663f 2087 733f b201 803f
00000080: cb7b 663f 85ad 803f 655f 543f f1ac 573f
00000090: e1bf 783f 7335 693f e916 853f 2798 4a3f
000000a0: 4bb3 5b3f 7786 793f 768b 6a3f 3b00 573f
000000b0: ea5d 5a3f 5ce0 793f 9383 703f 498a 803f
000000c0: fe24 6c3f ef8a 6d3f cf64 5c3f fe65 5e3f
000000d0: 4ef9 593f ba74 813f 58ef 583f 5cd8 5d3f
000000e0: 4894 853f f954 4b3f 1d2f 643f 86d5 713f
000000f0: 83e6 823f 6f94 633f 33dc 543f d3c7 693f
00000100: 0854 843f 0bae 7f3f e077 813f 4785 4c3f
00000110: 000c 563f 9762 773f dbee 5b3f 0d0b 623f
00000120: c4f6 823f 247d 713f 1d53 533f 941a 813f
00000130: b2d2 863f 00b0 7c3f 04e6 5b3f 2178 543f
00000140: d1a1 5a3f b8a9 643f 06b9 833f c117 963f
00000150: b9e4 713f 8702 4f3f 6d95 793f 27bb 5c3f
00000160: 4f90 6c3f 1448 5e3f 981b 603f 186c 883f
00000170: 4305 513f 730a 873f b9b5 7a3f 5cc3 713f
00000180: a587 6b3f a0a4 7f3f 0955 773f f3f9 723f
00000190: 7519 6c3f 11fc 673f 1ccb 833f 692b 433f
000001a0: fe2e 793f bb4a 803f 5970 533f e6fe 653f
000001b0: f39b 4b3f 87b8 5c3f 59d6 883f 01c6 513f
000001c0: 5775 653f 706b 623f 4151 813f 8bd9 6a3f
000001d0: f600 663f 7ec8 6f3f 4907 603f 596e 7e3f
000001e0: d253 8c3f 791d 4f3f fbd4 863f 9d47 613f
000001f0: 9e92 8a3f 9363 4e3f b3a4 6e3f 368b 5d3f
00000200: 06ff 843f 7f03 743f 6018 6a3f 2ea4 623f
00000210: 217a 663f 98bf 653f da57 6c3f 6110 713f
00000220: 150e 7a3f b464 773f 566b 673f 1b96 663f
00000230: 8118 693f f9bc 6a3f 1674 743f ddb8 6e3f
00000240: d202 6b3f 72fd 5b3f d659 623f 94e1 803f
00000250: 6ed7 573f 849b 543f 5190 673f c87d 663f
00000260: ea63 553f 13b7 7a3f fc02 6f3f 8a5f 603f
00000270: 4286 783f 7457 6f3f 365d 723f 7855 4f3f
00000280: ef54 813f 53e1 713f 0ad2 793f bfc8 693f
00000290: 1ea1 703f fc79 793f adb1 643f 9d33 6e3f
000002a0: 854f 6a3f 8ed1 533f 9d3f 5c3f 0283 793f
000002b0: 4e6f 673f 47ea 583f b760 6d3f 490f 7d3f
000002c0: 827c 693f df3d 5f3f 7c4a 5c3f 8c8e 8a3f
000002d0: 3356 803f 4a3c 563f e11d 5e3f bcd2 673f
000002e0: c8b1 843f fd4a 6a3f 2b88 893f 76cc 733f
000002f0: dcf4 723f 2d35 5d3f e4e1 6a3f 9e4c 6b3f
00000300: 9f35 5b3f 9aaf 6a3f 6854 5e3f 934f 6d3f
00000310: ac9e 6c3f d815 613f cd05 633f a02d 5e3f
00000320: a54a 673f c1b4 8a3f b7b5 7d3f 54cd 7f3f
00000330: 103e 833f 73c9 763f fea8 6b3f c5de 7a3f
00000340: 5bc1 6b3f aa22 663f 78ac 743f e871 693f
00000350: a394 6d3f 2c9e 623f 46db 613f 3243 5c3f
00000360: 3711 7a3f a3ce 803f f1a9 663f 2f25 913f
00000370: 4b24 753f c07c 673f 8851 6e3f 0cc7 853f
00000380: 7fa7 653f c465 673f 483c 783f 19d7 593f
00000390: efbe 5a3f fb33 803f 7ebe 843f 02c1 6a3f
000003a0: 77cf 6e3f a0a3 553f 866b 613f 8b7d 723f
000003b0: 7cfc 613f 92db 7b3f 9c43 743f a527 823f
000003c0: 6047 5f3f f390 723f d6f1 843f c9e2 7e3f
000003d0: 04d2 803f db0c 693f 7fcd 513f ea9d 663f
000003e0: 431a 683f 6441 683f 27f6 583f 0e9e 753f
000003f0: 51b6 873f 0e7f 543f 2087 5f3f 3217 673f
1.0064397 0.93669164 0.8675121 0.94401455 1.0139909 0.8258117 0.9465573 1.0521371
1.007579 0.8054875 0.8680525 0.8996409 0.8265165 0.9917836 1.01953 0.9751942
1.0419375 0.9744128 1.0220536 0.8810757 0.9262144 0.98851216 0.9388927 0.97494453
0.8954395 0.9549082 0.9478916 1.0411391 0.97065306 0.90134877 0.9512806 1.0000517
0.90032643 1.0052954 0.8295806 0.8424826 0.97167784 0.9109718 1.0397617 0.79138416
0.85820454 0.974708 0.9161905 0.83984727 0.8529955 0.9760797 0.93950766 1.0042201
0.92243946 0.9279012 0.8609132 0.8687438 0.85146034 1.0113747 0.8474021 0.86658263
1.0435877 0.79426533 0.8913439 0.94466436 1.0226597 0.88898367 0.831485 0.9132053
1.0338144 0.99874943 1.0114708 0.79890865 0.8361206 0.9663481 0.8591134 0.8829811
1.0231557 0.94331574 0.82548696 1.0086236 1.0533049 0.98706055 0.8589785 0.829958
0.8540316 0.8932147 1.029084 1.1725999 0.9448963 0.8086323 0.9749363 0.8622307
0.924077 0.8682873 0.87542105 1.0657988 0.81648654 1.0550064 0.97933537 0.9443872
0.9200385 0.9986057 0.9661413 0.9491264 0.92226344 0.90619 1.0296359 0.76238114
0.9733733 1.0022806 0.82593304 0.8984207 0.79534835 0.86219066 1.0690414 0.81942755
0.8963217 0.88445187 1.0102922 0.91738194 0.89845216 0.936653 0.87511116 0.9938713
1.096308 0.80904347 1.0533746 0.879999 1.0825994 0.8062069 0.9322006 0.86540544
1.0390327 0.95317835 0.91443443 0.8853177 0.90030104 0.89745474 0.9232155 0.9416562
0.9767774 0.96638036 0.90398157 0.9007279 0.91053015 0.916946 0.95489633 0.9325083
0.9180118 0.859336 0.8841833 1.0068841 0.84313095 0.830498 0.90454584 0.90035677
0.8335558 0.979356 0.9336393 0.8764578 0.9707986 0.9349282 0.9467348 0.8098979
1.0104045 0.9448444 0.9758612 0.9132194 0.93995845 0.9745176 0.8933361 0.93047506
0.9152759 0.8274163 0.86034566 0.9746553 0.9040421 0.8473248 0.927257 0.9885145
0.9120561 0.8720378 0.86051154 1.0824752 1.0026306 0.83685744 0.8676434 0.9055593
1.0366755 0.91520673 1.074468 0.9523386 0.94904876 0.86409265 0.9175093 0.91913784
0.85628694 0.91674197 0.86847544 0.92699546 0.92429614 0.87923956 0.88680726 0.8678837
0.90348274 1.0836412 0.991054 0.9992268 1.0253315 0.9640114 0.92054737 0.9799617
0.9209191 0.89896643 0.95575666 0.9118943 0.92804927 0.885226 0.8822521 0.8604003
0.9768252 1.006306 0.9010306 1.1339473 0.95758504 0.9042473 0.93093157 1.0451369
0.89708704 0.9038966 0.9696698 0.8509384 0.8544759 1.0015863 1.0370634 0.91700757
0.93285316 0.83452797 0.8805469 0.94722813 0.88275886 0.9838191 0.95415664 1.0168349
0.87218285 0.94752425 1.0386302 0.99564797 1.0064092 0.9103524 0.8195419 0.9008471
0.9066507 0.9072478 0.847506 0.959443 1.0602514 0.8300637 0.8731556 0.9026977

bn1.bias f4 [512]
00000000: a159 74be cad3 0ebe 494b e4bc 6d34 c83d
00000010: e5f4 9abe ccea 7bbe 624d c83c cdf9 84be
00000020: cfb3 073c 86af d73d 2cc7 0dbe 67a1 8dbd
00000030: d1ae dfbe 0b1a 4bbe e571 d1bd 406c 84be
00000040: fc37 2ebe 82d8 b0be c8be 3e3d 6ffc 573d
00000050: fa7a 443d 26c2 43bd befc 73bc 06b5 503d
00000060: 449e 0cbe 40ef a4be adcf bdbc e5db cabe
00000070: 21c6 a2be 9098 453e 98bd 30bc 4963 983c
00000080: 03ff af3d e15e 96bd dd1f 31be b459 b8be
00000090: 6fdf 7bbc 155c 9cbd 275f 99be e0c2 07be
000000a0: 3951 d93d 78c2 7cbe da3e 9d3d 23ed 423b
000000b0: 8a7d e4bc a9b0 113b 7949 22bd 0620 00bc
000000c0: edd7 babd 8143 9b3d b787 6dbe e253 f63c
000000d0: 031f 8e3d b647 233d cb3a 54be 344a e83d
000000e0: 3105 8dbe acc3 bcbe d300 ca3d f014 a1be
000000f0: 2f11 88bd 3817 01bd cdbd 2bbd ee27 40bd
00000100: 1054 86be 0984 b93d d1c6 79be 7a16 993e
00000110: 8655 803e 1f54 9cbe e293 0fbd 1023 c6bd
00000120: 3a3c ccbe 5ae6 8b3d 4dce b2bd 1c85 8bbe
00000130: 70e7 25be fb56 9abe 8e47 0cbd c6db 1ebe
00000140: 4018 b2bd 9101 903e 5be8 0ebf 8797 7a3d
00000150: cc91 543e 031e 87bd 3f60 81be 3fbc 06be
00000160: 3a33 98bd f408 7c3e e4e4 99be 0a75 153e
00000170: 8d60 6abe e258 043d 13e6 91be 194e ae3d
00000180: fba5 69bd 18cf 71be c923 88be 2ce5 d4bd
00000190: 53ea 963d 729a 443d ba41 a3bd 37a8 28be
000001a0: 5d0e 7a3d 818c 5bbe 66f7 a4be 7ade 91bd
000001b0: c15d a4bd 71cf ae3b 3933 1fbe 80f5 1bbe
000001c0: 3b76 013c 12ca cbbd ee32 4ebe a7df f53d
000001d0: 58e6 e0bc 0519 19be 6e5b c13c e67f d93c
000001e0: c304 67be efdc 903e e0bf 53be 6aa0 fbbd
000001f0: f579 4fbe c99a 4abe 6279 f43b 18cc 083d
00000200: 6853 a3be 8796 bbbd 3767 133e 2206 95bd
00000210: b42d 69be a9ac cebd 3da7 88bd dbcb 843c
00000220: 4dac ed3c 0716 a53d 082b bebd 6f9b 963e
00000230: d94a 91bb 1a1d c2be d622 c33d a097 8cbe
00000240: 2d43 a0bd 7d7a 60be 6bb2 f0bc 024f 80bd
00000250: f19b 0d3e 3b21 c3bd e83a cebd 7032 e4bd
00000260: 264e b5bd 7137 4abe 7b99 8cbd 723e 1fbd
00000270: c354 83be 846e 42bd a3e6 99bd b01f 11be
00000280: ee64 fdbc 7957 a33d ec10 b2be f954 963b
00000290: ce65 25bc 772f bb3c f8a6 f63d 6778 9abe
000002a0: bf0e a7bd 1687 09be 8d19 6e3d 69f0 8cbc
000002b0: b512 9a3d 98c1 84bd a35d 2f3e d44c 7ebe
000002c0: d0a9 f5bd b0f3 8f3d 667f 53be a39d 94be
000002d0: e6e9 11be 7a6b c4bd 5c81 8f3d fba5 6dbc
000002e0: 1ec6 14be e537 d8bd a648 0abc a845 b63d
000002f0: abf9 02be a060 2fbd 7962 a0be 6a90 113d
00000300: 87a3 27bc 3924 7cbc 2e84 9cbd b0a3 0abe
00000310: 7d47 aebe 5045 b43d 685d 2bbe a19f 3e3e
00000320: 5705 95bd a7e7 03be 756a 893c ea8b a4be
00000330: 2408 6c3d c55c 19be 0839 473d 9eb8 90bc
00000340: e371 03be aa66 ba3b bfbd ecbb 9e78 aabe
00000350: aa4e 8a3c c589 48be 99d8 c3bd 8550 043e
00000360: 66ef 96be a1bb 9dbe dae6 7cbe 42d5 963c
00000370: 0204 8bbe d3a4 f8bd 9eb5 d3bd 5412 91be
00000380: e6a5 553d f6e7 8fbd b49c e8bd 1f4e 7a3e
00000390: bd03 dabd e23d 61be 04b7 70bd 93af afbd
000003a0: 93a0 9bbe 0466 163e 80c6 5abc b7c9 3e3d
000003b0: 9cc8 7b3e f27a 7dbe 631e e5bc 224e 7ebd
000003c0: cc64 5e3d 1cbc 0a3c 445f 0abe a04d cbbd
000003d0: a8b6 633d 2798 11be 323c e1be 67c3 033d
000003e0: 8aab a53d 6541 a2bd 1a45 8fbd c963 abbd
000003f0: 1daf 1ebe 4b09 89be 6212 663e c88d 923d
-0.23862316 -0.13947979 -0.02786793 0.097756244 -0.30264965 -0.24601287 0.024450962 -0.25971833
0.008282616 0.10531525 -0.1384551 -0.06915551 -0.43688062 -0.19834153 -0.10226802 -0.25863838
-0.17013544 -0.34540182 0.046568662 0.052730974 0.047968842 -0.047792576 -0.014891801 0.050953887
-0.13732249 -0.32213783 -0.023170317 -0.3962089 -0.31791785 0.19296479 -0.01078739 0.01860203
0.085935615 -0.073423155 -0.17297311 -0.36005938 -0.015373095 -0.07634751 -0.29955408 -0.13257933
0.10611195 -0.24683559 0.076780036 0.0029743395 -0.027891893 0.0022230542 -0.03962085 -0.007820135
-0.09123216 0.07581235 -0.23196302 0.030069295 0.06939509 0.03986331 -0.20725553 0.11342278
-0.27543023 -0.36868036 0.098634385 -0.31461287 -0.066439025 -0.031516284 -0.041929055 -0.04691308
-0.2623601 0.09058387 -0.24392249 0.2989996 0.2506525 -0.3053293 -0.03505314 -0.096746564
-0.398897 0.068310454 -0.08730755 -0.27249992 -0.16201568 -0.30144486 -0.034247927 -0.15513524
-0.086960316 0.28126195 -0.55823296 0.061179664 0.20758742 -0.06597521 -0.25268742 -0.13157748
-0.07431646 0.2461279 -0.30057442 0.14595428 -0.22888394 0.032311328 -0.28495845 0.0851099
-0.057043057 -0.23614156 -0.26589802 -0.103952736 0.073689125 0.047998853 -0.07971521 -0.16470419
0.061048854 -0.21440317 -0.3222 -0.07122512 -0.08025695 0.0053347875 -0.15546884 -0.1523037
0.0079017235 -0.09950651 -0.20136616 0.12005549 -0.027453586 -0.1495095 0.023603167 0.026550245
-0.2256041 0.2829356 -0.20678663 -0.12286456 -0.20261367 -0.19785608 0.007460759 0.033397764
-0.3189957 -0.0915957 0.14394842 -0.0727656 -0.2277134 -0.10091526 -0.06672523 0.016210487
0.029012823 0.08060842 -0.09285551 0.2941546 -0.0044339714 -0.37912828 0.09528129 -0.2745943
-0.07825313 -0.21921726 -0.029381951 -0.062650695 0.13829018 -0.095278226 -0.10069829 -0.11142433
-0.08852796 -0.19747712 -0.068652116 -0.038877912 -0.25650606 -0.047468677 -0.075146936 -0.14172244
-0.030931916 0.079756685 -0.34778535 0.0045877662 -0.010095073 0.022849781 0.120435655 -0.30169985
-0.081571095 -0.13430437 0.058129836 -0.01720448 0.07523099 -0.064822376 0.17125563 -0.24833995
-0.1199528 0.070289016 -0.20654067 -0.29026517 -0.14249381 -0.09590812 0.07007095 -0.014504905
-0.145287 -0.10557536 -0.008440172 0.089000046 -0.12790553 -0.04281676 -0.3132513 0.035538115
-0.010231859 -0.0153894955 -0.07642399 -0.13539004 -0.34038916 0.08802283 -0.1673485 0.18615581
-0.07276409 -0.12881337 0.016774395 -0.32137996 0.05762495 -0.14976795 0.048638374 -0.017666157
-0.12836413 0.005688508 -0.007224768 -0.3329515 0.016883213 -0.19583805 -0.09562797 0.12921341
-0.29479522 -0.30807212 -0.24697438 0.018412236 -0.27151495 -0.12140813 -0.10337375 -0.28334296
0.052160166 -0.07026665 -0.11358014 0.24443863 -0.10645244 -0.21996263 -0.058768287 -0.0857841
-0.30395946 0.14687353 -0.01335299 0.04657909 0.24588245 -0.24753931 -0.027968591 -0.062086232
0.054295346 0.0084677 -0.13512903 -0.09926915 0.055594116 -0.14218198 -0.43991238 0.032168772
0.08089359 -0.07922629 -0.06995602 -0.08368642 -0.15496488 -0.26764902 0.2246795 0.07155949

bn1.running_mean f4 [512]
00000000: 2765 86c1 fab1 35c0 f152 cac2 b66a 79c1
00000010: 4832 cac0 47c6 e042 aa72 f041 32da 13c0
00000020: d178 7bc0 2ff4 9bc2 6a26 b242 600d 1d42
00000030: 04af 0043 2a9d 13c2 eb26 db3f f456 c6c1
00000040: 8e4f 3cc1 a4b5 e9c1 4745 82bf 9736 e8c2
00000050: 313d 8fc2 0e4c 0240 8bd5 de3e 2170 f7c2
00000060: 9040 f941 8a0c 9bc1 e0b0 e341 ac6d 43c0
00000070: acfb 91c0 2496 00c2 a1fd 8dc2 2bee 0e40
00000080: 29eb a541 0c3c e9be 73ce 7a42 2831 d542
00000090: 5dd0 cc41 31da 2842 709d 82c0 f94a d742
000000a0: 36a5 b8c2 a141 7cc1 145d 44c2 36a7 9b42
000000b0: 7004 bd42 1e60 1e40 714d 8641 358c dec2
000000c0: 34b7 7ec1 0a58 b5c2 1b38 b341 beff b3c2
000000d0: 14e4 2542 c659 d2bf db80 2242 e6de ecc2
000000e0: 8bcb a6c1 1bef fb42 5ed6 ff41 2758 efc1
000000f0: a1ec b8c0 53ea af41 0a06 e1c2 284c 3242
00000100: cad4 cb40 5d06 2dc2 7c49 a2c1 36a8 e9c2
00000110: 7d8a 23c2 c8ce 18c2 6432 8e42 dc5a 4142
00000120: f5f5 8ac0 90c4 02c3 1ae5 ac41 2ca8 95c1
00000130: f2ac bfc1 0fed 91c1 a347 db42 6d18 c342
00000140: 0532 b041 420a fcc1 810b 12c0 972a c6c0
00000150: 1faa ccc1 03dd ac42 362a 03c2 d2e3 ddc2
00000160: 1b0d 1a41 c3f0 6cc2 4280 2342 a39c 293f
00000170: 0442 cc42 4478 c340 c6f5 39c2 6f9b 59c2
00000180: 9f37 9841 c3d1 9cc1 23c7 03c2 152b 7541
00000190: 6687 19c2 f41b fdc2 f925 1fc1 04ca 8542
000001a0: 4034 73c2 7cdc 4dc1 2d7c 1243 b6dd f141
000001b0: bc9f 2142 9237 bb42 127b f8c0 5164 ed41
000001c0: 7bd0 3f42 e97f 9d41 c900 5cc1 feed 03c2
000001d0: 97e1 1242 a174 6341 674e bac2 d43f 1d41
000001e0: 3b05 f13f 5417 11c2 dd75 a3c1 6d6f f741
000001f0: efa0 2fc1 0b7e f041 adcd 0ac3 6a75 a7c2
00000200: de62 4dc0 fdf3 c640 a447 40c2 f05e bd41
00000210: a99f a140 6483 6442 16d8 4dc0 a224 0ac3
00000220: 1fa8 8741 c78d 04c3 6169 7741 c776 84c1
00000230: 20b7 c7c2 f767 45c2 27c0 c4c1 8e08 c7c1
00000240: 6c4d 2e41 c609 b942 ee75 9142 3b11 f240
00000250: 7e97 07c3 6467 d842 1e8e a5c0 0302 3042
00000260: edd0 6c42 6241 abc1 e1bd 2640 c871 a242
00000270: 978e 3c41 6590 1242 20ed 0241 e037 b442
00000280: b2e8 4e3f fc34 6dc2 3651 b9c1 d997 f1c2
00000290: 871a 6d41 e951 a3c2 f635 abc1 ed97 7dc2
000002a0: db8c 0042 1426 1e42 0e2b 0fc2 bf12 f4c2
000002b0: 6261 f4c2 2bec 9b42 cc4f cfc1 99a3 aac0
000002c0: 7ab7 a741 5d1f bec2 1d97 9542 0827 4fc0
000002d0: b83c 1e40 cc8a 3f42 63a5 cac2 bc04 a1c2
000002e0: 967a 9440 1491 8041 7436 a340 261a 7bc2
000002f0: 2951 6c41 2ad9 0e42 6f6d 3fc2 bece dbc2
00000300: 2781 1542 b18d a841 e59e 5d42 7aeb 8340
00000310: 780c a8c2 e324 6142 05f6 6b42 9b75 cbc1
00000320: 47cb 2b42 0df6 95c1 b895 1142 a600 d5c1
00000330: 7240 cbc0 3f86 b1bf 3617 d8c2 9e44 4541
00000340: 3474 3dc2 17f3 b641 96b5 df41 3906 5ec2
00000350: fb26 fbc2 cd16 95c1 95b9 4e42 045f dcc2
00000360: 61cb bcc1 a844 56c1 74df a441 4964 8abf
00000370: 15fb 6cc2 3a94 9abf 608d b140 070c 5dbf
00000380: 493c 08c2 d087 0742 bf7c 2640 5cd1 aec2
00000390: 7238 c541 b05a 96c0 c538 f4bf 7d5f 1d42
000003a0: 5c38 42c2 73f7 6fc2 d24d 1c42 80ca c5c2
000003b0: 72c2 8dc1 8c7e 9cc0 86d2 3841 f50f 69c0
000003c0: 27a3 1142 0508 6740 1d9a 9dc0 75a9 3741
000003d0: 17b3 ecc2 e2b4 a8c1 2d53 e142 a71f e7c2
000003e0: e388 6cc2 524f ff41 140c 8c42 c4eb ca41
000003f0: 53e3 56c0 90fb be42 5e17 94c1 cb8a 06c2
-16.79939 -2.8389878 -101.161995 -15.588552 -6.318638 112.38726 30.055988 -2.3101926
-3.929249 -77.97692 89.07503 39.26306 128.68365 -36.90348 1.7121252 -24.792458
-11.769423 -29.213692 -1.0177392 -116.10662 -71.619514 2.035892 0.43522295 -123.719
31.156525 -19.381123 28.461365 -3.0535688 -4.5619717 -32.14662 -70.99537 2.2332866
20.739824 -0.45553625 62.70161 106.59601 25.60174 42.213078 -4.0817184 107.64643
-92.32268 -15.766023 -49.090897 77.826584 94.50867 2.4746165 16.787813 -111.27384
-15.919727 -90.67195 22.402395 -89.9995 41.472733 -1.6433647 40.625835 -118.43535
-20.849386 125.967 31.979671 -29.918043 -5.7788854 21.989416 -112.511795 44.57437
6.369725 -43.256214 -20.285881 -116.82854 -40.885242 -38.201935 71.09842 48.33873
-4.342524 -130.76782 21.611866 -18.707115 -23.959446 -18.240751 109.639915 97.54771
22.024424 -31.505009 -2.2819521 -6.192699 -25.583067 86.43166 -32.79122 -110.94496
9.6282 -59.23512 40.87525 0.66254634 102.12894 6.108431 -46.490013 -54.40179
19.027159 -19.602423 -32.94447 15.323018 -38.382225 -126.554596 -9.946771 66.89456
-60.801025 -12.866329 146.48506 30.233257 40.40599 93.608536 -7.765023 29.673983
47.953594 19.687456 -13.750192 -32.982414 36.720303 14.215974 -93.15313 9.828083
1.8829721 -36.27278 -20.43255 30.929407 -10.97679 30.061544 -138.80342 -83.729324
-3.2091594 6.2172837 -48.06996 23.671356 5.05074 57.12831 -3.2163138 -138.1431
16.95709 -132.55382 15.463227 -16.557997 -99.857666 -49.35153 -24.593824 -24.879177
10.893902 92.51909 72.73033 7.5646033 -135.59177 108.201935 -5.1735983 44.001965
59.20403 -21.406925 2.6053393 81.22223 11.784812 36.64101 8.182892 90.10913
0.80823815 -59.301743 -23.164654 -120.79658 14.818976 -81.65998 -21.401348 -63.398365
32.137554 39.537186 -35.792046 -122.03661 -122.1902 77.961266 -25.913963 -5.3324704
20.964588 -95.06126 74.79514 -3.2367573 2.472456 47.885544 -101.32302 -80.50925
4.639964 16.070839 5.100397 -62.775536 14.7698145 35.712074 -47.85687 -109.90379
37.376125 21.069185 55.40517 4.1224947 -84.02435 56.286022 58.990253 -25.432425
42.948513 -18.745142 36.39621 -26.625317 -6.351617 -1.3869094 -108.045334 12.329252
-47.36348 22.868696 27.963665 -55.506077 -125.57613 -18.636133 51.681232 -110.18558
-23.599306 -13.391762 20.609108 -1.0811855 -59.245197 -1.2076485 5.5485077 -0.8634648
-34.058872 33.88263 2.601364 -87.408905 24.652561 -4.6985703 -1.9079825 39.34325
-48.55504 -59.99165 39.075996 -98.89551 -17.719944 -4.8904476 11.551397 -3.641599
36.40933 3.6098645 -4.9250627 11.478871 -118.349785 -21.088322 112.66245 -115.56182
-59.13368 31.91373 70.02359 25.36512 -3.3576248 95.49133 -18.51141 -33.63554

bn1.running_var f4 [512]
00000000: 95f0 0143 f215 ae42 b9be 1d45 8486 f542
00000010: c66f 0843 9451 4345 4284 8743 1bbb ce42
00000020: c2b6 3642 5da7 bb44 f225 fa44 f6c0 d443
00000030: 30cd 7f45 b677 d343 e58c 2342 c07e 5843
00000040: 7b67 b842 8cbf 8a43 f71a 8842 23a2 5145
00000050: 28de a444 8001 9a42 3f6c 3842 ddcd 6945
00000060: 8a2a 9f43 1dc1 3a43 b7e8 7843 5563 fc41
00000070: 2449 9342 cc95 c643 1e55 a044 86a4 4e42
00000080: 3a97 3143 460a 6942 8f09 8044 e90b 2f45
00000090: df9d 5b43 50bc fe43 4c01 2242 90f0 3145
000000a0: b95d 0645 3627 0a43 42ac 2544 ad1b bd44
000000b0: 509d 0a45 352f 5242 4aa8 d142 a53a 3f45
000000c0: 431f d042 0cb2 fd44 97ae 3743 f380 fd44
000000d0: 5c77 ef43 cff2 8b42 4196 e543 7e20 5745
000000e0: 0880 3443 c2ed 7345 0e1c 9643 99ca 8e43
000000f0: d997 9242 2c31 2043 2a19 4245 5ee3 0644
00000100: 9676 b542 54ae 0544 df72 0b43 1d8d 5245
00000110: 114d e043 f8a1 f243 f584 9c44 b83e 1e44
00000120: d5a5 c742 701c 8345 23c2 2e43 da59 0b43
00000130: 06d5 4f43 e048 0043 5ed2 3945 b3d6 1245
00000140: f73f 2743 1710 9743 4534 c642 4949 b142
00000150: 99bf 4a43 5a6f e944 066e a843 542b 3d45
00000160: a32d 8942 245c 6744 40ba f643 8830 6542
00000170: 3ccd 2245 092e ed42 efaf 2344 ba2a 3e44
00000180: b24f 0243 ea3e 2d43 7243 ba43 5330 e942
00000190: 416f d243 f434 7545 7e92 9c42 c886 8f44
000001a0: af1c 7244 95db b942 1151 a445 cd0f 9243
000001b0: 2e3a e043 4cd4 0745 1526 8a42 afb0 7a43
000001c0: 5cc6 1e44 b0d2 2b43 0e80 d842 21f3 b143
000001d0: 5c29 c843 6086 da42 cf63 0645 3879 b242
000001e0: dc6f 0443 f4f8 bb43 0aba 2543 61c1 9243
000001f0: f347 b042 b19c 9443 76d3 9345 5d6a da44
00000200: 0f39 5f42 6791 b442 83ce 1844 9ef5 5843
00000210: 99cb 8e42 4bf4 5a44 a391 9d42 d615 9245
00000220: 6e05 0943 6b15 8645 ff17 ce42 2f02 0f43
00000230: 62a1 1b45 6bf7 1f44 4ac8 3643 04fb 5343
00000240: a2d5 5e42 d0a9 0645 84ce a644 66e7 f242
00000250: b09b 8e45 c4b4 3445 977e 1042 46d5 0444
00000260: d885 6244 753b 3c43 f1d3 bc42 87dc cf44
00000270: 9cd8 a742 d395 d043 c2b1 7e42 3b76 fc44
00000280: d250 7242 dc2b 6244 2cf6 5343 d0dc 5f45
00000290: d0b0 bb42 0ab2 d244 cc70 2443 78a6 8244
000002a0: 7990 a543 892b e743 aa1b ad43 3153 6345
000002b0: 445f 6545 2f90 bf44 14ea 8f43 fcde c842
000002c0: 315b 2143 383b 0b45 5674 ae44 ab36 4e42
000002d0: 2611 bb42 3dc5 1f44 e13c 1e45 607f c944
000002e0: be41 8942 68bf c142 0f88 ca42 fe3a 7d44
000002f0: 3f93 a942 9aa0 c943 7f43 1844 8771 3945
00000300: 7128 d643 0c3c 1a43 2798 4b44 39f9 9142
00000310: 5544 dc44 7a9b 4f44 5c91 8044 42d3 5b43
00000320: 865e 0444 de66 4f43 cca6 cf43 0f9c 7443
00000330: 4f14 7142 e607 2042 a2b2 3245 9070 b342
00000340: a311 1b44 6d1a 3443 39e7 8243 c12e 4844
00000350: fa91 6f45 db1a 3f43 8d85 2d44 f9c7 3a45
00000360: 38b0 4d43 ffdf f342 c27d 1343 4444 d942
00000370: 12c0 5f44 f916 4342 a22e 4e42 a637 5442
00000380: 739c 9f43 e5a8 c043 a41b a742 3694 f244
00000390: eda3 4743 1079 3d42 ab7a 5043 6428 e543
000003a0: d083 1644 a8a7 6b44 d38d d043 cba1 1545
000003b0: 15da db42 4511 6d42 16d0 1443 ac3a ab42
000003c0: f9d3 c343 ef61 cb42 1043 c342 8ffc b042
000003d0: 4911 5645 d8ec 4643 958c 4545 55d3 4f45
000003e0: 79f9 6b44 a817 9043 e1c0 9c44 627a 4d43
000003f0: e68e 4042 44a4 0c45 9ad7 df42 1ed4 ab43
129.93977 87.04286 2523.9202 122.762726 136.43661 3125.0986 271.03326 103.36544
45.678474 1501.2301 2001.1858 425.5075 4092.8242 422.93524 40.887592 216.49512
92.20211 277.49646 68.052666 3354.1335 1318.9424 77.00293 46.10571 3740.8665
318.33234 186.75435 248.90904 31.548502 73.64285 397.1703 1282.6599 51.660667
177.59073 58.260033 1024.2987 2800.7444 219.61668 509.4712 40.501266 2847.0352
2149.8577 138.15317 662.6915 1512.8649 2217.832 52.5461 104.82869 3059.6653
104.06106 2029.564 183.68199 2028.0297 478.9325 69.974236 459.17386 3442.0308
180.50012 3902.8599 300.21918 285.5828 73.29658 160.19208 3105.5728 539.5526
90.73161 534.7239 139.44872 3368.8196 448.60208 485.26538 1252.1549 632.98
99.82389 4195.5547 174.75835 139.35098 207.83212 128.28467 2973.148 2349.4187
167.24986 302.1257 99.10209 88.643135 202.74843 1867.4797 336.85956 3026.708
68.589134 925.4397 493.45508 57.297394 2604.8271 118.58991 654.74896 760.6676
130.31131 173.24576 372.52692 116.59438 420.86917 3923.3096 78.28612 1148.2119
968.4482 92.92887 5258.1333 292.12344 448.45453 2173.2686 69.07438 250.69017
635.09937 171.823 108.25011 355.89944 400.32312 109.26245 2150.238 89.236755
132.43695 375.94495 165.72672 293.51077 88.140526 297.22415 4730.4326 1747.3239
55.80572 90.28399 611.22675 216.95944 71.39765 875.8171 78.78445 4674.7295
137.02121 4290.6772 103.04687 143.00853 2490.0864 639.8659 182.78238 211.98053
55.708626 2154.6133 1334.4536 121.45195 4563.461 2891.2979 36.123623 531.3324
906.0913 188.23225 94.41395 1662.8915 83.923065 417.1705 63.67359 2019.6947
60.578926 904.6853 211.96161 3581.8008 93.84534 1685.5637 164.44061 1045.2021
331.1287 462.34012 346.21613 3637.1995 3669.954 1532.5057 287.82874 100.43552
161.35622 2227.7012 1395.6355 51.553387 93.53349 639.08185 2531.805 1611.9805
68.6284 96.87384 101.26574 1012.92175 84.78759 403.2547 609.0546 2967.0955
428.31595 154.23456 814.3774 72.98676 1762.1354 830.4293 1028.5425 219.82523
529.4769 207.40182 415.3031 244.6096 60.269833 40.007713 2859.1646 89.71985
620.2756 180.10323 261.80643 800.7305 3833.1235 191.1049 694.08673 2988.4983
205.68835 121.93749 147.49124 108.63333 895.0011 48.772434 51.54554 53.054344
319.22226 385.3195 83.553986 1940.6316 199.64034 47.368225 208.47917 458.31555
602.0596 942.6196 417.108 2394.112 109.92594 59.266865 148.81284 85.61459
391.65604 101.69128 97.63098 88.49328 3425.0803 198.92517 3160.7864 3325.2083
943.898 288.1848 1254.0275 205.47806 48.13955 2250.2666 111.9211 343.65717

fc2.weight f4 [256, 512]
00000000: 1847 aa3d 55ca e93c cdcb 6abc 94e7 a1bc
00000010: 9bdb 043b d6e8 e2ba 357d 913d 9a8b 4d3c
00000020: 6af3 883d d44c 3fbd 7824 493c 38cf 023c
00000030: 00c0 733c 1fe9 98bd a8c7 183d 980b 373a
00000040: d51f 383d 6540 953c 1955 ee3c 54d0 0abd
00000050: fe26 8abc 9497 2f3c 43e0 233d 273c 2abc
00000060: 0f22 abbb ac2f 1cbd cf6c 1d3d 1139 db3d
00000070: 7526 963c 1745 8bbd 86c9 ad3c 6c2b 19bd
00000080: 6bdf 2e3d e305 783d 8c4e 813d 4de2 d93c
00000090: d8af a43c 76f9 313d 2dac e93d 601c 003d
000000a0: f954 863c 651f be3d 87fe c83c 9d77 9e3d
000000b0: dcbd 623d 47b7 5dbd a169 8a3b 06ad 5c3c
000000c0: 35d9 b7bd 16ff c43b ca57 6e3d 45b7 0dbc
000000d0: b5cb e53c 8f2d 903d 13ba dc3b a4d0 9e3c
000000e0: 0b1d 2c3d f9b7 553d 7f35 1b3d 1b35 adbc
000000f0: 325c 95bc baba 22bb 0dea 583c 17cb 013d
00000100: 423b 0e3d e3be ccbb 41c7 3c3b 36d2 8abd
00000110: 4852 113c 4396 38bd 60bb 8c3d aaf0 e13b
00000120: c291 a4bd 4146 e4bc 77dd b03c 9772 e83d
00000130: 78cb 06bd 90e7 683d 7d6e 083d 8342 8d3d
00000140: 38f8 923d 03f4 ebbc 25ef ba3c 79ea 97bd
00000150: 6a1c d7bc 0c34 553d 14a6 073d 3de9 24bd
00000160: 3760 503c 02bd 3cbd 793a 393d f880 173b
00000170: cea0 7c3d fd9b 1f3d c427 aebc 7f19 9abd
00000180: 8be8 903c 5d26 cb3d 15eb 1cbd 9e51 e43c
00000190: 7252 6c3c 5a23 29bd 94f3 b33c 88fe 6e3d
000001a0: b162 b0bc 3e08 a5bd 8648 9d3d 4de4 b13c
000001b0: 06d9 bebc b2e5 5d3c 86fa 923d f525 0c3d
000001c0: 84af 8c3d dd73 db3d 98ed a63c 3fe9 88bc
000001d0: dff1 4c3d cfb0 5dbd c4b5 423b c7eb 45bd
000001e0: fcc4 a1bc cf92 ffbc f7d2 813d 358e 053d
000001f0: 2a13 afbc 5faa 5e3b e596 813c 5786 9539
00000200: 8693 af3d 10fe 8cbc 45c0 f3bc 8aec 8e3d
00000210: 09ad a03c dae7 4d3d 4d08 083d f79f 9b3c
00000220: 6552 26bd 67d7 ebbc f7d9 5f3d 72b9 fcbc
00000230: 7afc f2bc 8bc9 3cbd 9374 c4bb b878 0ebc
00000240: 15ac 613c 2d81 973d 17f8 023d 6541 d1ba
00000250: e0c5 b8bc d63d 233d 992c c63c 89b4 ae3c
00000260: e02b 8eba 7225 e63d ce7d 8cbb a133 693d
00000270: 10d0 bdbc 25bb 8c3b 95a3 013d 0410 863d
00000280: 54f6 a53c 43e0 e0bc 0ee7 7f3d 4ead 55bd
00000290: b045 a6bc 87a0 db3c 6f83 4fbc 0d48 57ba
000002a0: a38f 99bb a9e9 c33b 7729 acba 4071 e4bc
000002b0: 57ce 8fbc e54d fd3c 1b15 eabc 6cf1 9b3c
000002c0: 74fe 69bc 5f37 85bd ad58 af3d 2a6c eb3d
000002d0: ddb7 923d d912 043d d4a2 17bd 96bb 01bd
000002e0: f2de 93bc 4f35 2a3d 242b 883d 1a6b cfbc
000002f0: c71d c4bc 0451 113d 8279 93bd 9e61 3cbd
00000300: 5dfa 123d e0fa 283d 05c4 803d 6d0e 913c
00000310: d4ca f4ba 3ca6 8d3d 537b 04bd bd9f 90bc
00000320: 640e e2bb 2e53 1abd e109 32bd fa7a 2c3d
00000330: a355 3d3d c8da 9abc f8af 0abd 8ef6 59bd
00000340: 7ba1 debb 0e90 043d f141 093d 452f f0bc
00000350: 0d44 cebc 7c68 c03c eb13 d83c a337 6dbd
00000360: eae0 09bd 3a37 8a3d 574a efbc e8c4 c3bb
00000370: ae4b 23bd 58f2 c73d 934a 633d f8a9 083e
00000380: 5ce1 51bc 00f0 9d3c c4f7 2e3d f81e e03c
00000390: 5e4e 9b3d 7703 9a3d f3e3 d73c 4648 a53c
000003a0: 757a 94bc c3e0 aebb c068 9f3d 648f a93c
000003b0: 842c 3f3d d18a 7ebb fd53 3ebd 5393 8c3b
000003c0: 8308 8b3d 2b7b f5bc 929f 263d 93c1 a33c
000003d0: 0c59 bb3a dea6 203d e964 ff3c e16b 36bd
000003e0: b242 9ebd e22a ff3c 2285 0dbd f6fc 193c
000003f0: bec7 cd3c 8390 4a3d 9022 953c 2bc1 aabc
0.08314341 0.028538862 -0.014330816 -0.019763745 0.0020272497 -0.0017311822 0.071039595 0.012545491
0.066870525 -0.04670413 0.012276761 0.007983975 0.014877319 -0.07466339 0.037299782 0.00069826236
0.044952232 0.018219182 0.029093312 -0.033890083 -0.016864296 0.010717291 0.040008795 -0.010390318
-0.005222566 -0.0381314 0.038433846 0.10704244 0.018328885 -0.06800287 0.021214258 -0.037394926
0.042693537 0.06055249 0.0631381 0.026597166 0.02010338 0.043450795 0.11409793 0.03127706
0.01639794 0.09283332 0.02453543 0.07737658 0.055356845 -0.054129865 0.0042240177 0.013468986
-0.08976976 0.006011854 0.05818919 -0.008649652 0.028051237 0.070399396 0.006736049 0.019386597
0.042019885 0.052177403 0.037892815 -0.021143487 -0.018232439 -0.0024830536 0.013239396 0.031687822
0.03472448 -0.0062483414 0.0028805288 -0.06778376 0.008869715 -0.045065176 0.068716764 0.0068951445
-0.080356136 -0.02786553 0.021589978 0.11349981 -0.032908887 0.05686146 0.033308495 0.06897452
0.0717625 -0.028802877 0.022819111 -0.07417769 -0.026258666 0.05205159 0.03311737 -0.040261496
0.012718252 -0.04607869 0.04522178 0.0023117643 0.061676793 0.03896712 -0.021259196 -0.07524394
0.01768901 0.099194266 -0.03831013 0.02787095 0.014423953 -0.04129348 0.021966733 0.05834821
-0.021531435 -0.08058213 0.076798484 0.021715308 -0.023296844 0.013543533 0.0717669 0.034215886
0.068694144 0.107154585 0.020376965 -0.016712783 0.050035354 -0.054123696 0.0029710392 -0.048320558
-0.01974725 -0.031197933 0.063390665 0.032606322 -0.021371443 0.003397606 0.015819022 0.00028519586
0.0857306 -0.01721099 -0.029754767 0.0697871 0.01961376 0.05026994 0.03321104 0.018997176
-0.04060592 -0.028789235 0.054651227 -0.030850146 -0.029661406 -0.046090644 -0.005995342 -0.008695774
0.013773938 0.07397685 0.03197488 -0.0015964924 -0.022555292 0.039853893 0.024191188 0.02132632
-0.0010846816 0.11237611 -0.004287458 0.056934003 -0.023170501 0.0042947703 0.031650145 0.065460235
0.02025906 -0.027450686 0.06247621 -0.05216723 -0.020296901 0.026809944 -0.012665614 -0.00082123355
-0.0046863123 0.005978782 -0.0013134916 -0.027886033 -0.017554445 0.030920932 -0.028574517 0.019036017
-0.014281858 -0.06504702 0.085618354 0.1149524 0.071639754 0.032244537 -0.03702052 -0.031673037
-0.018050645 0.041554745 0.066488534 -0.025319625 -0.02393998 0.035477653 -0.0720091 -0.045991533
0.035883296 0.041254878 0.06287388 0.017707074 -0.001867617 0.06916472 -0.032344174 -0.017654294
-0.006898688 -0.037676983 -0.043466453 0.042109467 0.046224248 -0.018903151 -0.033859223 -0.05321365
-0.0067941523 0.032363944 0.033510152 -0.029319415 -0.025178934 0.023487322 0.026376685 -0.057914387
-0.03366176 0.06748815 -0.029210253 -0.005974401 -0.039867096 0.0976302 0.05549104 0.13346088
-0.0128100775 0.01927948 0.042716756 0.027358517 0.07583307 0.07520192 0.026353812 0.020176064
-0.018124798 -0.0053368523 0.07783651 0.020698257 0.046673313 -0.0038840065 -0.046466816 0.0042900234
0.06788733 -0.029965958 0.04067952 0.019989764 0.0014293506 0.039221637 0.031176047 -0.044536475
-0.07727565 0.031148378 -0.034550793 0.0093986895 0.025119659 0.049454223 0.018204957 -0.020844063

fc2.bias f4 [256]
00000000: 39f4 2bbd cf55 c03a cc6b 2abd 9711 ce3c
00000010: d3ad dbbb 5054 07bd d004 88bb 75e2 113d
00000020: e979 eabc cb8b ea3c d2cb 8bbc 69d0 20bc
00000030: dc89 223d 8d26 f73c 2047 aabc 426d 0a3d
00000040: 89d0 15bd faa2 a13c edd1 c0bc caf6 21bc
00000050: 901a 813c f02a a93b e7f4 01bb 1f4a ecbc
00000060: da58 7f3c 445a 503c a7dc 8f3b 51c6 2b3c
00000070: fb64 3bbd 516a 3b3d d276 ffbc 1ea2 ee3c
00000080: ede7 63bc 2510 0cbd 65f4 88bc a052 67bc
00000090: 7fc7 17bd d097 ebbc 7ea7 8fbc b272 683c
000000a0: 172e ccbc 4cc1 dabc b5d5 be3c 89c9 713c
000000b0: 3795 ce3b fb07 55bd 65f0 16bd c785 c9bc
000000c0: b2d8 033d bfbb d5bb 99d1 343c f751 e339
000000d0: 065c 9b3b 6c72 513c ce5f a03c a5db 82bc
000000e0: 036e 20bd efe5 3cbd 2e97 0b3d 31b2 0bbd
000000f0: 4945 2fbd 32df 1bbc ce1f 10bc fe44 7ebc
00000100: de56 6cbc 2c7d 6e3c 750d 073d e8fd a73c
00000110: f09b 22bb ee5c 093d 7c9f 21bd ce12 b23c
00000120: 3785 9a3c eebb b8bc 5949 cebc 42d6 133d
00000130: f620 023d c373 423d 3edb 8e3c d27c 643c
00000140: c49d ac3c 32bd d2bc fd73 5d3c 8cf5 04bd
00000150: 0f8e 9dbc 244d 1fbb 41fc b9bc ecd3 743a
00000160: 6e84 2d3d 81a7 613c ebc2 34bb c51a 003d
00000170: fc4a 30bd d3c8 32bc 2221 aebc e74c 9e3b
00000180: b58c d33c f1ac d9bc 4cf6 943c f005 20bd
00000190: 06e7 023d ef60 053d 313e 35bd 8f86 8b3c
000001a0: 591a 0f3d ad12 463d 1292 c03c 8986 9fbc
000001b0: 2b8b 303d a8b1 05bd 3d8a 673c 62ff 923c
000001c0: 4e35 f53c 9d23 6f3b ad69 183c ad0a f7bb
000001d0: 202a fabc 65fb 3b3d cdb4 37bd eb2c e7bc
000001e0: dfad 923c bcdc 383c 0b7b 93bb 782c 2abd
000001f0: e155 ea3c f991 233d db86 9d3c b04a 2b3c
00000200: 9e55 6ebb 15ed bbba 1525 e8bc 5b81 5cbc
00000210: 56f0 f9bc 4257 2bbd 2036 18bd 9129 033d
00000220: 873b b13c 7ef9 bb3b 01c3 4dbb 3e65 36bc
00000230: 0a07 f13b c8d8 973c cd7e c2bc 4b8b 3fbc
00000240: 2fe5 e4bc c8e6 5ebc 0ae0 66bc b6dc f43c
00000250: 73b4 243d b166 aa3a 8c8f 423c f58d 003d
00000260: 07d4 f0bb e487 d33c decb c03c eb94 d53c
00000270: 2c79 24bd be67 063d a84f c3bc f2c5 acbc
00000280: d14a 3abd 8cdd 2abc b129 0d3d 34ba 66bb
00000290: 687f 503c e429 223d ce0a 403d 6450 043d
000002a0: b4ef c6bc 9b91 13bd 586e e33c 75aa e33b
000002b0: 12c0 04bd 9c95 473c 67b3 d93c 404a 17bd
000002c0: a262 933b 38c3 c03c 33ba e5bc 3bc7 173c
000002d0: 0f6f ddbb 47b1 e4bb 8fdb 09bd 706b 11bd
000002e0: c748 babc 06c9 ee3c 1a93 f13b 7d23 0bbc
000002f0: 6a29 88bc f435 bbbc 0474 d7bc 15d8 a2bc
00000300: 09ca e6bc 82b1 90bc d1a9 8f3c 863a f73c
00000310: e392 793c 0649 17bd 4596 763c 8f89 463c
00000320: c5c4 693c d511 febc 8c4e 2dbd 522d f0bb
00000330: e1b0 04bd 144f 1cbc 4cf8 b33c 93d9 fa3c
00000340: 2727 a539 97e7 343d d37f b33c 6874 67bc
00000350: a673 3bbd f5b9 5b3c 9150 45bc 3d47 dc3c
00000360: 1815 e6bc 99c6 82bc 46df 2b3d 81db 7ebd
00000370: 9401 143d 5917 df3b 624d 0abd 6346 f13b
00000380: 417f 423a ef7e e43b e6d4 cbbc 3625 26bd
00000390: e02d b73c ae1c 9fbc a14f 073d 2587 cdbb
000003a0: 1c78 bdbc fc9a f2bc 3a04 623c 4f74 cfbc
000003b0: 4b53 123d 8dbc 193d f7fc 10bc 8e08 33bd
000003c0: fcfb 10bc a357 b83c 798f 9f3c 73a5 d6bc
000003d0: e424 96bb f36c 01bd 3385 26bc 3d9b c73b
000003e0: 3b94 cc3c 2da7 f1bc 4678 1c3d 674b 283d
000003f0: be33 b23b 0b4e ad3c dfd6 acbc 7f66 9dba
-0.041980956 0.001467401 -0.04160671 0.025154872 -0.006704071 -0.03303939 -0.0041509643 0.035616357
-0.028622584 0.028631112 -0.017064963 -0.009815314 0.039682254 0.03016975 -0.020785868 0.033795603
-0.036575828 0.019731034 -0.0235376 -0.009885499 0.015759736 0.0051625893 -0.001982981 -0.028843937
0.015585149 0.0127168335 0.0043903175 0.010484294 -0.0457506 0.045755688 -0.031184588 0.029130038
-0.013910276 -0.034195084 -0.016718099 -0.01411882 -0.03705549 -0.028758913 -0.017535921 0.014187502
-0.024924321 -0.0267035 0.023295263 0.014757522 0.006304409 -0.052009564 -0.03685035 -0.024599923
0.03218908 -0.006522625 0.0110363 0.00043357883 0.0047411947 0.012783628 0.019576933 -0.015973875
-0.039167415 -0.04611772 0.034079723 -0.034105483 -0.042790685 -0.009513663 -0.008796645 -0.015519379
-0.014425008 0.0145562105 0.032971818 0.020506814 -0.0024812184 0.03353589 -0.039458737 0.021737482
0.01886235 -0.02255055 -0.02518146 0.036093004 0.031769715 0.04747368 0.017438527 0.013945775
0.021071322 -0.025724981 0.013516423 -0.032460734 -0.019232778 -0.0024307454 -0.022703292 0.000933944
0.042362623 0.013772846 -0.0027582 0.03127553 -0.04304026 -0.010912138 -0.021256033 0.004830945
0.02582393 -0.026571723 0.01818385 -0.039068162 0.031958602 0.032563146 -0.044248763 0.017031936
0.034937236 0.048357654 0.023507152 -0.019473331 0.04310147 -0.03264013 0.01413208 0.017944042
0.029932644 0.0036489733 0.009302539 -0.0075391144 -0.030537665 0.045894045 -0.04485016 -0.02821966
0.017905174 0.011283096 -0.004500752 -0.041546315 0.028605403 0.039934132 0.019229343 0.010454819
-0.003636695 -0.0014337624 -0.028337995 -0.013458575 -0.030510109 -0.041831262 -0.037160993 0.032022063
0.02163483 0.005736529 -0.003139675 -0.011132536 0.0073555754 0.018535987 -0.023742104 -0.011690925
-0.027941315 -0.013604827 -0.014091501 0.0298904 0.040211152 0.0013000575 0.011875045 0.03138538
-0.0073494944 0.025821634 0.023534711 0.026071986 -0.04015462 0.03281378 -0.023841694 -0.021090481
-0.045481507 -0.010428797 0.03446359 -0.00352062 0.0127256885 0.03959073 0.046885304 0.03230323
-0.024284221 -0.036027532 0.027762577 0.0069478103 -0.032409735 0.012181666 0.026574804 -0.036936045
0.004497842 0.023530588 -0.028042888 0.009263809 -0.006757624 -0.006979141 -0.033656653 -0.03550285
-0.022739781 0.02914859 0.007372272 -0.008492348 -0.01662131 -0.022852875 -0.026300438 -0.019878427
-0.02817251 -0.017662767 0.01753703 0.030179273 0.015232774 -0.036934875 0.0150504755 0.012117757
0.014268105 -0.031014362 -0.042311236 -0.0073296214 -0.032395247 -0.009540338 0.021968983 0.030621326
0.00031500423 0.044166174 0.021911537 -0.0141268745 -0.045764588 0.013411035 -0.012043134 0.026889438
-0.02808623 -0.01596384 0.041960977 -0.062221054 0.036134318 0.006808203 -0.033765204 0.007363127
0.0007419475 0.0069731395 -0.024881791 -0.04056283 0.022360742 -0.019422855 0.033034924 -0.006272214
-0.023128562 -0.029614918 0.013794953 -0.025324015 0.035723966 0.03753333 -0.008849374 -0.04370933
-0.00884914 0.022502726 0.019477593 -0.02620194 -0.0045820344 -0.031598043 -0.010163593 0.006091504
0.024973026 -0.029498661 0.03820064 0.041087534 0.005438297 0.021155378 -0.021098552 -0.0012008696
