Demand_Forecasting/output/model_cnn.pt (torch, 319888 bytes, 21 tensors)

conv1.weight f4 [64, 30, 1]
0.030089635 -0.14311145 -0.15936156 0.14465366 0.122243725 0.07894783 0.08698636 0.012926626
-0.00022586163 0.07704668 -0.047631115 -0.16517468 0.06471019 -0.027017003 0.11322839 -0.0143116675
-0.0054526166 -0.12049803 -0.02731314 0.13366759 0.15352568 0.053584903 -0.13073221 0.13991879
-0.014295153 -0.17125379 0.1194061 -0.1944121 0.13236116 -0.1580194 0.027624788 0.1617551
-0.05944987 -0.034998123 -0.07795951 0.163216 0.004456921 -0.024545334 0.12374045 0.006371238
0.018415686 0.09016218 -0.14425382 0.21469754 -0.026735328 -0.093641944 -0.027035145 -0.15078396
-0.08886032 0.061191622 0.17815724 -0.08471354 -0.074683696 -0.08740245 0.108136185 -0.122178175
-0.11550893 0.05912621 0.13571914 0.1735228 0.023618285 -0.07996803 0.065456636 -0.15715058
-0.26024464 -0.027231129 -0.070177026 -0.15326193 -0.07883543 -0.11891223 -0.25753325 0.05388392
-0.023207331 0.025385669 -0.020803485 -0.009413007 -0.15675935 -0.15402569 -0.1809803 -0.08223531
-0.24922337 -0.08837052 -0.039743513 -0.35220826 0.10200854 -0.16231023 -0.0627298 -0.109515056
-0.084735595 -0.26212704 0.05793211 0.0340349 -0.16557544 0.027701601 -0.016143069 -0.16748415
0.13712344 -0.0810571 -0.006054911 0.06286309 0.15176865 0.083512455 0.20308423 0.051438916
0.066562206 -0.04857871 -0.053825278 -0.15173249 0.111974806 -0.17224832 0.10311191 -0.01290482
0.11210528 0.019872332 -0.12720393 -0.18417324 0.16136341 0.012768126 -0.045839816 0.038427386
0.026587341 -0.07633816 -0.056053083 -0.12089226 -0.02774114 -0.048760004 0.1422728 0.059702206
0.1470229 0.007728973 0.05107947 -0.078648046 0.12564366 0.14688559 0.16645533 -0.114004225
-0.059047703 0.07417019 -0.0074584507 0.10855192 0.13109538 -0.1590312 0.09908123 -0.03609912
-0.043329444 0.0420591 0.04093776 -0.15194935 0.12662782 0.04535727 -0.0816035 -0.29829565
0.5086786 0.29469088 -0.17301606 -0.3863112 -0.27534762 -0.25026467 0.13740285 -0.15849784
0.36749804 -0.4266872 -0.47329277 -0.11113298 -0.6033024 -0.6119083 0.10560352 0.60808575
0.023014138 0.2587223 -0.87875044 -1.1729921 -0.46556544 -0.33614165 -0.03953563 -0.028657489
0.08850603 0.12620485 -0.5240385 -0.6245242 0.0915673 -0.049042843 0.14379553 -0.13270997
-0.11688858 -0.025372986 -0.08344835 -0.003855379 0.14256372 0.077649176 -0.08035143 0.03559036
-0.100705385 -0.012161302 0.028409705 0.08103002 0.018878486 -0.07467098 0.11926496 -0.017097607
-0.02696365 0.11534236 -0.017147085 0.15886042 -0.13203996 0.13844784 -4.4369117e-05 -0.051584236
0.03677701 0.010056932 0.0877582 -0.13866623 0.016413277 0.098229 0.008097563 -0.06471095
-0.1156415 -0.0007867511 0.12134736 -0.15270258 0.038580872 -0.1450377 0.025005708 0.17979307
0.18634833 0.0291965 0.109462194 0.01382756 -0.18385147 0.011768297 -0.0676857 0.019110948
-0.041466672 -0.0014830052 -0.05194025 -0.03613237 0.062173188 -0.020097043 -0.026205897 0.13192463
-0.010657151 -0.008516113 -0.14161086 -0.16232057 0.050344724 0.07185418 -0.020627577 0.19398801
-0.010943714 0.11410824 0.021305878 0.0096774325 0.032586087 -0.104675144 0.05716086 0.10644832
00000000: 8a7e f63c cf8b 12be ad2f 23be 1720 143e
00000010: eb5a fa3d 66af a13d e825 b23d 33ca 533c
00000020: 45d5 6cb9 a6ca 9d3d d818 43bd 8d23 29be
00000030: c786 843d c352 ddbc 49e4 e73d 7c7b 6abc
00000040: ddab b2bb acc7 f6bd cebf dfbc 28e0 083e
00000050: d635 1d3e d87b 5b3d aade 05be df46 0f3e
00000060: 3836 6abc 275d 2fbe 2f8b f43d f713 47be
00000070: af89 073e d6cf 21be 614d e23c 21a3 253e
00000080: b581 73bd 315a 0fbd 3ca9 9fbd 1822 273e
00000090: 5d0b 923b 4c13 c9bc a26b fd3d d1c5 d03b
000000a0: 7edc 963c f3a6 b83d 46b7 13be acd9 5b3e
000000b0: 0c04 dbbc 59c7 bfbd cf78 ddbc 1c67 1abe
000000c0: 66fc b5bd 11a4 7a3d da6e 363e 4b7e adbd
000000d0: c4f3 98bd 0e00 b3bd 8176 dd3d 8d38 fabd
000000e0: f28f ecbd 532e 723d f5f9 0a3e f6af 313e
000000f0: 227b c13c 47c6 a3bd 210e 863d 15ec 20be
00000100: c93e 85be d113 dfbc f9b8 8fbd b2f0 1cbe
00000110: 7874 a1bd 4188 f3bd 66db 83be 63b5 5c3d
00000120: 4d1d bebc 9bf5 cf3c 126c aabc 0339 1abc
00000130: 8685 20be e9b8 1dbe e652 39be fc6a a8bd
00000140: 6934 7fbe 9afb b4bd 18ca 22bd a454 b4be
00000150: dae9 d03d a734 26be 7b78 80bd 6e49 e0bd
00000160: db89 adbd 8435 86be 384a 6d3d 2e68 0b3d
00000170: 9c8c 29be 78ee e23c 783e 84bc f780 2bbe
00000180: 166a 0c3e 4401 a6bd 4668 c6bb 5dbe 803d
00000190: 3e69 1b3e 9408 ab3d 50f5 4f3e 9db1 523d
000001a0: c451 883d 78fa 46bd e577 5cbd c35f 1bbe
000001b0: 0c53 e53d dd61 30be 562c d33d bd6e 53bc
000001c0: 7497 e53d 4dcb a23c bf41 02be e997 3cbe
000001d0: 733c 253e 6731 513c 88c2 3bbd 0966 1d3d
000001e0: b2cd d93c 2e57 9cbd eb97 65bd 5c96 f7bd
000001f0: 6341 e3bc 92b8 47bd f6af 113e 4d8a 743d
00000200: 2c8d 163e 5343 fd3b b538 513d 3a12 a1bd
00000210: bba8 003e 2d69 163e 4473 2a3e 0c7b e9bd
00000220: 01dc 71bd 8ae6 973d 0566 f4bb 7850 de3d
00000230: de3d 063e 13d9 22be 1aeb ca3d acdc 13bd
00000240: 377a 31bd 2a46 2c3d 5aae 273d 9c98 1bbe
00000250: b9aa 013e 8bc8 393d bc1f a7bd 35ba 98be
00000260: c338 023f b9e1 963e 1f2b 31be 95ca c5be
00000270: 5dfa 8cbe b122 80be 55b3 0c3e 424d 22be
00000280: b428 bc3e bf76 dabe 6e53 f2be b099 e3bd
00000290: 0772 1abf 06a6 1cbf a946 d83d 82ab 1b3f
000002a0: 2588 bc3c 4077 843e caf5 60bf 9b24 96bf
000002b0: 985e eebe c21a acbe 1df0 21bd 1cc3 eabc
000002c0: a642 b53d d83b 013e 6327 06bf d1e0 1fbf
000002d0: a387 bb3d 26e1 48bd 233f 133e 1fe5 07be
000002e0: 4863 efbd 02db cfbc f8e6 aabd 87aa 7cbb
000002f0: 39fc 113e 8806 9f3d 4a8f a4bd 33c7 113d
00000300: a03e cebd 3340 47bc 78bb e83c 11f3 a53d
00000310: 0ea7 9a3c 19ed 98bd 3041 f43d 4810 8cbc
00000320: dfe2 dcbc 9e38 ec3d 0b78 8cbc 4eac 223e
00000330: 7c35 07be 45c5 0d3e fa18 3ab8 fe49 53bd
00000340: 7da3 163d d5c5 243c 92ba b33d 85fe 0dbe
00000350: 2375 863c 492c c93d a4ab 043c 2d87 84bd
00000360: 73d5 ecbd f93d 4eba f784 f83d 115e 1cbe
00000370: fa06 1e3d c384 14be c5d8 cc3c ad1b 383e
00000380: 19d2 3e3e 802d ef3c b72d e03d fd8c 623c
00000390: 8f43 3cbe d1cf 403c cd9e 8abd 908e 9c3c
000003a0: f5d8 29bd 6661 c2ba 4dbf 54bd 89ff 13bd
000003b0: 50a9 7e3d 8ea2 a4bc c0ad d6bc 4017 073e
000003c0: 559b 2ebc 2b87 0bbc 7002 11be 5d37 26be
000003d0: 4536 4e3d 4928 933d 2afb a8bc cba4 463e
000003e0: 434d 33bc 95b1 e93d aa89 ae3c 188e 1e3c
000003f0: fd78 053d ec5f d6bd 8221 6a3d 9401 da3d

conv1.bias f4 [64]
0.017750328 -0.120606415 0.24849492 -0.030590706 0.023642896 -0.122092575 -0.08841105 0.014875404
-0.06856326 -0.2505406 -0.22158545 -0.13511628 -0.41054845 0.023684066 -0.19136934 0.043837048
-0.3930848 0.22277533 0.037598886 0.5590195 -0.10433464 -0.13473573 0.3210807 -0.12104395
-0.20825934 -0.010220654 -0.0157141 0.15076101 -0.12749767 -0.33193263 0.13152993 -0.0033711393
0.05586186 -0.058091212 -0.031129206 0.08520155 -0.037983894 0.100860976 -0.026066395 -0.02632421
-0.30988985 -0.3496542 -0.17342411 -0.25815696 -0.09025701 -0.17378047 0.05170059 -0.05424562
-0.0021535081 -0.28285313 -0.10822571 -0.1971532 -0.056500092 -0.19174749 -0.1450249 -0.08768416
0.07103207 0.037845634 0.20836794 -0.33218518 -0.16964024 -0.07365195 0.17371592 -0.03102889
00000000: 2369 913c 7f00 f7bd 7475 7e3e 5c99 fabc
00000010: bfae c13c ac0b fabd da10 b5bd f7b7 733c
00000020: e56a 8cbd dc46 80be 4ce7 62be ec5b 0abe
00000030: 6833 d2be 1605 c23c 53f6 43be 7a8e 333d
00000040: 6942 c9be 371f 643e 4a01 1a3d e71b 0f3f
00000050: 66ad d5bd 2af8 09be b164 a43e e4e5 f7bd
00000060: f041 55be 8874 27bc dbba 80bc 1861 1a3e
00000070: c08e 02be 13f3 a9be c8af 063e 55ee 5cbb
00000080: 68cf 643d 0df1 6dbd ad02 ffbc 267e ae3d
00000090: 0095 1bbd 3390 ce3d 3189 d5bc dfa5 d7bc
000000a0: e2a9 9ebe e005 b3be 1796 31be 262d 84be
000000b0: abd8 b8bd 82f3 31be ffc3 533d a830 5ebd
000000c0: df21 0dbb 20d2 90be 71a5 ddbd 87e2 49be
000000d0: a46c 67bd 7459 44be 6881 14be c193 b3bd
000000e0: 4379 913d 0604 1b3d 685e 553e 2d14 aabe
000000f0: 2cb6 2dbe d5d6 96bd 96e2 313e 4c30 febc

bn1.weight f4 [64]
0.81816274 0.8421564 0.15121822 0.7863129 0.9836983 1.7927759 0.801015 0.42948103
0.412297 0.52852285 0.79557794 0.86954 0.72018576 0.72040015 0.5008662 0.50193566
0.84158254 0.542414 0.57119346 -0.34970978 0.993928 0.38663635 0.41266552 0.8341167
1.5646266 0.8189874 0.88633716 -0.48219693 0.8390881 1.497981 0.84912497 0.80083126
1.2517104 1.1951334 0.5716574 0.8600935 0.5211229 0.89711463 1.5399083 2.7005916
0.57889676 0.73898685 1.0905868 1.1131175 0.83657163 0.90123916 0.71540475 0.9107267
0.9155739 1.5595173 0.92506516 0.5481226 1.2056189 0.91653305 0.8321575 1.3862083
0.8142129 0.5191788 0.62759763 0.79594547 0.76414734 0.88962185 0.7268237 0.8896796
00000000: 1d73 513f 9097 573f f3d8 1a3e cd4b 493f
00000010: a7d3 7b3f ae79 e53f 520f 4d3f f0e4 db3e
00000020: 9818 d33e 464d 073f ffaa 4b3f 2c9a 5e3f
00000030: 185e 383f 256c 383f c438 003f db7e 003f
00000040: f471 573f a5db 0a3f bc39 123f 290d b3be
00000050: 1172 7e3f 33f5 c53e e548 d33e ac88 553f
00000060: af45 c83f 29a9 513f fee6 623f 84e2 f6be
00000070: 7ace 563f d7bd bf3f 4160 593f 4703 4d3f
00000080: 0c38 a03f 22fa 983f 2458 123f 162f 5c3f
00000090: 4f68 053f 4ea9 653f b71b c53f 7ed6 2c40
000000a0: 9432 143f 3e2e 3d3f 5998 8b3f a27a 8e3f
000000b0: 8f29 563f 9cb7 663f c424 373f 6325 693f
000000c0: 0d63 6a3f 439e c73f 12d1 6c3f c351 0c3f
000000d0: b851 9a3f e9a1 6a3f 4608 553f 466f b13f
000000e0: 4270 503f e7e8 043f 3daa 203f 15c3 4b3f
000000f0: 299f 433f 42be 633f 1e11 3a3f 0bc2 633f

bn1.bias f4 [64]
-0.04639792 0.085465044 0.36569676 0.073074006 -0.03979492 -0.04412902 0.003308629 0.0910176
0.13047992 -0.014751422 -0.14706947 -0.012595991 -0.0771754 0.053052787 -0.09064051 0.082379796
-0.26552454 0.29523256 0.036979366 0.24533546 -0.03617827 0.05512407 0.19998594 -0.13062859
0.02039954 -0.007540312 0.010945265 0.34253305 0.05205156 0.03461333 0.005242828 -0.049929313
0.17785932 -0.07922117 -0.24523668 0.048079576 0.0020459015 0.013191818 0.14170502 0.06250347
-0.10046673 -0.15569684 -0.027691424 -0.1629465 -0.053949196 -0.0064986134 0.09297716 -0.059695624
0.0005515815 0.020019947 0.063304074 -0.13945912 0.044132207 -0.04738811 0.025863715 0.03553801
-0.08266161 0.14450479 0.20692177 -0.14090726 -0.17255709 0.016859012 0.4341683 -0.034472156
00000000: bf0b 3ebd 4c08 af3d 9b3c bb3e d3a7 953d
00000010: ffff 22bd a2c0 34bd 95d5 583b 6f67 ba3d
00000020: 879c 053e f3af 71bc 6199 16be 6a5f 4ebc
00000030: 230e 9ebd e14d 593d bba1 b9bd bdb6 a83d
00000040: d5f2 87be b928 973e ad77 173d 3839 7b3e
00000050: aa2f 14bd c7c9 613d 1dc9 4c3e 80c3 05be
00000060: f01c a73c b914 f7bb c553 333c 7e60 af3e
00000070: 0434 553d b5c6 0d3d 07cc ab3b ae82 4cbd
00000080: c120 363e b53e a2bd 531f 7bbe 17ef 443d
00000090: 8814 063b 7f22 583c 1f1b 113e d201 803d
000000a0: 80c1 cdbd fe6e 1fbe 20d9 e2bc 73db 26be
000000b0: d5f9 5cbd 52f2 d4bb cf6a be3d 6683 74bd
000000c0: 0298 103a df00 a43c 91a5 813d 5fce 0ebe
000000d0: f9c3 343d 091a 42bd 24e0 d33c 4e90 113d
000000e0: 7d4a a9bd 10f9 133e 4de3 533e fe49 10be
000000f0: ceb2 30be e91b 8a3c 4f4b de3e ad32 0dbd

bn1.running_mean f4 [64]
55.910572 91.19925 119.883736 74.44304 116.04618 -76.596504 93.74857 108.34805
99.7982 138.89221 -112.651276 102.218 -108.89921 99.85091 118.70888 109.04339
119.48268 -99.171745 121.38624 119.89606 -78.0876 141.93417 105.27598 -117.390175
-113.11621 86.61221 61.872387 101.61656 83.066574 -104.46657 77.6811 126.78129
-130.7605 -83.47917 -87.53611 89.230286 113.773766 75.047615 -126.86719 -88.41519
-67.69019 -73.0983 -114.68379 -89.90753 120.96343 84.133514 104.22191 92.530045
119.51163 -97.026794 89.18083 -79.30559 -98.963486 -111.90918 60.138184 -122.82013
71.182365 110.4895 101.51992 127.78267 -132.58945 85.986374 138.52971 85.77238
00000000: 6da4 5f42 0466 b642 79c4 ef42 d6e2 9442
00000010: a517 e842 6931 99c2 457f bb42 34b2 d842
00000020: ae98 c742 68e4 0a43 744d e1c2 9e6f cc42
00000030: 65cc d9c2 aab3 c742 f26a ed42 3716 da42
00000040: 22f7 ee42 ef57 c6c2 c1c5 f242 c8ca ef42
00000050: da2c 9cc2 26ef 0d43 4d8d d242 c5c7 eac2
00000060: 803b e2c2 7439 ad42 537d 7742 ae3b cb42
00000070: 1622 a642 e2ee d0c2 b95c 9b42 0590 fd42
00000080: b0c2 02c3 56f5 a6c2 7d12 afc2 e875 b242
00000090: 2b8c e342 6118 9642 00bc fdc2 94d4 b0c2
000000a0: 6161 87c2 5432 92c2 1a5e e5c2 a8d0 b3c2
000000b0: 47ed f142 5c44 a842 9e71 d042 620f b942
000000c0: f405 ef42 b80d c2c2 965c b242 769c 9ec2
000000d0: 4eed c5c2 80d1 dfc2 808d 7042 e8a3 f5c2
000000e0: 5f5d 8e42 a0fa dc42 330a cb42 ba90 ff42
000000f0: e696 04c3 06f9 ab42 9b87 0a43 758b ab42

bn1.running_var f4 [64]
779.2421 2088.9841 3597.3918 1373.5433 3284.3105 1474.0565 2283.6821 2928.1567
2423.9612 4833.5146 3206.838 2587.2102 2922.6812 2494.0247 3593.0625 2942.117
3518.6155 2418.0115 3579.074 3562.059 1520.8977 4939.6743 2830.954 3350.434
3145.2788 1850.8533 957.07025 2561.445 1688.2966 2695.9695 1609.1577 3916.0764
4348.368 1767.8112 1945.5182 2032.2258 3207.1511 1384.497 3921.1465 1970.8851
1148.4547 1290.1985 3343.4573 2060.0264 3619.5212 1851.1375 2789.5698 2094.7114
3495.677 2306.4973 1998.9637 1609.4161 2484.6682 3068.066 900.4203 3776.6538
1422.0347 3022.6714 2471.9578 4143.2607 4287.444 1949.68 4623.9585 1810.6492
00000000: 7fcf 4244 bf8f 0245 45d6 6045 63b1 ab44
00000010: f844 4d45 cf41 b844 eaba 0e45 8202 3745
00000020: 617f 1745 1e0c 9745 686d 4845 5db3 2145
00000030: e6aa 3645 65e0 1b45 0091 6045 dfe1 3745
00000040: d9e9 5b45 2f20 1745 2fb1 5f45 f2a0 5e45
00000050: ba1c be44 655d 9a45 44ef 3045 f266 5145
00000060: 7694 4445 4e5b e744 7f44 6f44 1f17 2045
00000070: 7e09 d344 837f 2845 0c25 c944 39c1 7445
00000080: f2e2 8745 f5f9 dc44 9530 f344 3a07 fe44
00000090: 6b72 4845 e70f ad44 5812 7545 535c f644
000000a0: 8d8e 8f44 5a46 a144 51f7 5045 6cc0 0045
000000b0: 5738 6245 6664 e744 1e59 2e45 62eb 0245
000000c0: d57a 5a45 f527 1045 d7de f944 512d c944
000000d0: b14a 1b45 0ec1 3f45 e61a 6144 760a 6c45
000000e0: 1cc1 b144 beea 3c45 537f 1a45 167a 8145
000000f0: 8dfb 8545 c3b5 f344 ab7f 9045 c654 e244

conv2.weight f4 [128, 64, 1]
0.036219317 -0.023723466 -0.019631712 0.10205387 -0.0012684196 -0.05146341 -0.08912556 0.01595821
-0.074263684 0.060753133 -0.00090388185 -0.04094074 -0.046681754 -0.013283008 -0.03295479 0.06434412
-0.10854098 0.0019219535 0.033711795 0.006730869 -0.03390207 -0.11525969 -0.116707385 -0.015995573
-0.23610137 -0.028298296 -0.02779021 0.015878577 0.022770857 -0.1514769 -0.038680624 -0.010912759
-0.087899946 -0.15595955 -0.054291155 0.052277483 -0.0033507263 -0.00015962245 -0.059609327 0.05476199
-0.03972338 -0.1412334 -0.16483262 -0.11771543 -0.06990315 -0.094016664 0.10835387 0.014619001
0.031661093 -0.09520943 0.03567874 -0.02278216 -0.04492171 -0.029423868 -0.1168148 -0.10791642
0.08998657 -0.05541507 -0.08197385 -0.078206405 -0.104698166 0.022073088 -0.033075254 -0.0013987371
0.06921659 -0.05980451 -0.093849376 0.009409855 -0.018682284 -0.07297797 -0.067633495 -0.13924702
-0.20286255 -0.07221044 -0.1859786 -0.051815744 -0.22226746 -0.032601647 -0.22871865 -0.15628171
0.06760335 -0.27577975 -0.14828463 -0.12024064 0.034836814 -0.27451652 -0.15784232 -0.16196643
-0.23981884 -0.10513972 -0.12144369 -0.032138284 0.06977189 -0.11133089 0.007867526 -0.10651947
-0.2223701 -0.19050898 -0.1346511 0.046225425 -0.00936185 0.10544366 -0.19790044 -0.18933868
-0.10979471 -0.12845257 -0.1702985 -0.20935206 0.02362165 -0.05826877 0.0036757938 -0.09035378
-0.046671156 -0.124878354 0.09198742 -0.2705708 -0.15027834 -0.28470618 -0.067124 -0.10761781
-0.08094898 -0.1676072 -0.22937033 -0.086428665 -0.18094902 -0.013704266 -0.07341059 0.04094162
-0.086637124 -0.14646365 -0.40820536 0.05212998 0.024222037 -0.05735726 0.094503924 -0.0771623
-0.06099613 -0.33147585 -0.030956727 0.053073894 0.043796495 -0.03894741 -0.19110474 -0.26425645
-0.13855006 -0.029555254 -0.14184077 -0.28164333 0.080692634 -0.28087085 -0.2612783 0.06755276
-0.079273835 -0.089572646 -0.009287637 -0.11109059 -0.10270586 0.045063663 -0.20342693 -0.07748573
-0.09408468 -0.06183392 0.0022137477 -0.02594843 -0.12729418 -0.11505588 -0.09332257 0.08410235
-0.05728658 0.114816144 0.04154907 0.071003094 -0.039745614 -0.09462004 -0.10999804 -0.12903993
0.03474368 0.0008341593 -0.10918896 0.045003295 0.027794784 0.02614025 -0.13336927 0.011236101
-0.07394383 -0.22710973 -0.24498218 -0.095281616 -0.035883475 -0.13362812 -0.36106843 -0.10622663
-0.11522411 -0.0609004 -0.16991368 0.03075926 -0.1807359 -0.089192234 -0.15023908 -0.26467586
-0.29947332 -0.17377418 -0.014016734 -0.0077735265 -0.0748115 -0.14401951 -0.13009666 -0.23546095
-0.049884565 -0.2911775 -0.32152385 -0.4271416 -0.010866552 -0.24078314 -0.22675711 0.077916004
0.01961696 -0.0674362 0.08212768 -0.29783508 -0.012848194 -0.06795803 -0.07891666 -0.24186465
-0.2595208 0.046795804 0.03873295 -0.087009065 -0.1932118 0.02986589 -0.22260445 -0.11182877
0.0020577405 -0.12179166 0.019617656 0.015445833 0.059080053 -0.009076227 -0.00968153 -0.020204997
-0.11363467 -0.15881959 -0.15248142 -0.08856422 0.012931345 -0.07640366 0.02593148 -0.07062713
0.024030508 -0.30547896 -0.29485893 -0.2997624 -0.036648426 -0.015545706 -0.40100002 0.030117456
00000000: b55a 143d b757 c2bc afd2 a0bc 9f01 d13d
00000010: 1941 a6ba 4ccb 52bd 7687 b6bd cbba 823c
00000020: 8f17 98bd 47d8 783d 7cf2 6cba 7ab1 27bd
00000030: 5e35 3fbd f9a0 59bc 9afb 06bd dac6 833d
00000040: bc4a debd 0fea fb3a 6115 0a3d 9f8e dc3b
00000050: e6dc 0abd 460d ecbd 4804 efbd 2609 83bc
00000060: 8fc4 71be d4d1 e7bc 4ba8 e3bc ca13 823c
00000070: f389 ba3c c31c 1bbe 936f 1ebd 6ecb 32bc
00000080: e304 b4bd dcb3 1fbe 6760 5ebd ea20 563d
00000090: dc97 5bbb 5360 27b9 e928 74bd 1c4e 603d
000000a0: fcb4 22bd 7d9f 10be e2c9 28be ca14 f1bd
000000b0: 6229 8fbd cf8b c0bd a2e8 dd3d 8984 6f3c
000000c0: 10af 013d 29fd c2bd df23 123d a7a1 babc
000000d0: d4ff 37bd 530a f1bc 993c efbd 4903 ddbd
000000e0: e14a b83d eafa 62bd e8e1 a7bd ae2a a0bd
000000f0: fe6b d6bd 9fd2 b43c eb79 07bd d455 b7ba
00000100: 6dc1 8d3d 93f5 74bd 1a34 c0bd cb2b 1a3c
00000110: 970b 99bc 7975 95bd 6e83 8abd c596 0ebe
00000120: 33bb 4fbe 11e3 93bd 2d71 3ebe bf3c 54bd
00000130: 159a 63be 4e89 05bd 3935 6abe 5008 20be
00000140: a073 8a3d 0133 8dbe edd7 17be ba40 f6bd
00000150: 0cb1 0e3d 6e8d 8cbe 6ba1 21be 87da 25be
00000160: 1293 75be 7e53 d7bd 78b7 f8bd 6fa3 03bd
00000170: 91e4 8e3d 7301 e4bd cce6 003c e126 dabd
00000180: fdb4 63be c914 43be fae1 09be df56 3d3d
00000190: 7262 19bc d8f2 d73d 6aa6 4abe 00e2 41be
000001a0: 0ddc e0bd 1289 03be bb62 2ebe 6360 56be
000001b0: 3182 c13c 3cab 6ebd 96e5 703b 670b b9bd
000001c0: 412a 3fbd 39c0 ffbd e763 bc3d 4288 8abe
000001d0: 91e2 19be 02c5 91be 4f78 89bd ba66 dcbd
000001e0: 94c8 a5bd 39a1 2bbe 0ee0 6abe 8301 b1bd
000001f0: b34a 39be dc87 60bc 4b58 96bd 66b2 273d
00000200: ce6e b1bd 91fa 15be 4b00 d1be 3f86 553d
00000210: 4b6d c63c 72ef 6abd 468b c13d 4507 9ebd
00000220: 14d7 79bd 34b7 a9be f698 fdbc 0364 593d
00000230: f463 333d 5287 1fbd f6b0 43be 9f4c 87be
00000240: 11e0 0dbe dc1d f2bc b53e 11be 8e33 90be
00000250: 2e42 a53d 4ece 8fbe 45c6 85be 1a59 8a3d
00000260: 525a a2bd dd71 b7bd 2c2b 18bc 7783 e3bd
00000270: 7357 d2bd ad94 383d 264f 50be d7b0 9ebd
00000280: 78af c0bd 9145 7dbd 8614 113b cd91 d4bc
00000290: 6859 02be 6ba2 ebbd e71f bfbd da3d ac3d
000002a0: 55a5 6abd ba24 eb3d 5c2f 2a3d 126a 913d
000002b0: 4ccc 22bd 27c8 c1bd a746 e1bd 0b23 04be
000002c0: 644f 0e3d 7cab 5a3a 769e dfbd 6055 383d
000002d0: e3b1 e33c 1424 d63c f491 08be a017 383c
000002e0: dd6f 97bd 748f 68be 9cdc 7abe 0223 c3bd
000002f0: 8dfa 12bd cfd5 08be f6dd b8be 598d d9bd
00000300: 9efa ebbd b372 79bd dafd 2dbe d8fa fb3c
00000310: d512 39be 6baa b6bd 46d8 19be 9883 87be
00000320: 9154 99be dcf1 31be 72a6 65bc 11b9 febb
00000330: c636 99bd da79 13be 0f38 05be ad1c 71be
00000340: c253 4cbd 3815 95be c69e a4be 4eb2 dabe
00000350: 9f09 32bc db8f 76be 0433 68be 6d92 9f3d
00000360: bfb3 a03c fe1b 8abd 8f32 a83d d77d 98be
00000370: 3b81 52bc 942d 8bbd 0f9f a1bd 5eab 77be
00000380: e9df 84be f5ac 3f3d 71a6 1e3d cf31 b2bd
00000390: 50d9 45be 50a9 f43c 6cf2 63be 7b06 e5bd
000003a0: 28db 063b e86d f9bd 35b5 a03c 8510 7d3c
000003b0: edfd 713d 75b4 14bc 489f 1ebc f384 a5bc
000003c0: 4bb9 e8bd 9aa1 22be 1724 1cbe 2861 b5bd
000003d0: fedd 533c 8679 9cbd 416e d43c f5a4 90bd
000003e0: a1db c43c bd67 9cbe c0f7 96be 757a 99be
000003f0: a91c 16bd 6bb3 7ebc e04f cdbe e2b8 f63c

conv2.bias f4 [128]
-0.026463106 -0.20554519 -0.24009283 -0.41465124 -0.103813305 -0.19482428 -0.4668102 -0.34049055
-0.5674128 -0.2660443 -0.06173346 -0.12769604 -0.5219986 -0.536147 0.033100825 0.038219653
-0.44938418 0.016078545 0.15188406 -0.45176268 -0.24213913 -0.41808057 -0.2415968 -0.3874069
-0.014870178 -0.37456703 -0.2932918 -0.05760185 -0.26956356 -0.19703886 -0.26682854 -0.3164797
-0.21336608 -0.23886079 -0.10898364 -0.29633597 -0.35629684 -0.14372618 -0.2552367 -0.0564915
-0.3122147 -0.2776177 -0.53695625 -0.2612542 -0.11950682 -0.40162718 -0.14186807 -0.356109
0.026694568 -0.42374235 -0.15534921 -0.20255986 -0.24503975 -0.2712325 -0.1650456 -0.23276292
-0.28751004 -0.07101802 -0.3428859 -0.18874899 -0.05606891 -0.29893303 -0.3184545 -0.2572342
-0.46545318 -0.34311613 0.068995036 -0.14056417 0.017472649 -0.14321205 -0.35952833 -0.041212942
-0.22976822 -0.35097742 -0.0460523 -0.4353633 -0.2922632 -0.029950876 -0.09563796 -0.2824878
-0.347056 -0.4961234 -0.28267276 -0.48362786 0.03143459 -0.4977348 -0.26725668 -0.0960863
-0.36807212 -0.045433667 -0.13696702 -0.2015991 -0.27081832 -0.17406213 -0.42305714 0.08767527
-0.060765658 -0.26995164 -0.19226673 -0.28750646 -0.2943917 -0.100530386 -0.1872938 -0.408009
-0.14600423 -0.4427635 -0.009152698 -0.36112458 -0.34231234 -0.0073897713 -0.01824636 -0.25249684
-0.32231387 0.044131752 -0.15646619 -0.07396171 -0.006520314 -0.45672926 -0.009788921 -0.054038994
-0.07623091 -0.026415568 -0.016727312 -0.11340765 -0.29662228 -0.42694026 -0.020026403 -0.4221456
00000000: 28c9 d8bc 707a 52be e5da 75be 2b4d d4be
00000010: 129c d4bd 0480 47be bf01 efbe c754 aebe
00000020: f741 11bf f536 88be 39dc 7cbd c0c2 02be
00000030: b3a1 05bf ee40 09bf bb94 073d 368c 1c3d
00000040: af15 e6be 27b7 833c 7f87 1b3e 704d e7be
00000050: 52f3 77be a80e d6be 2765 77be 325a c6be
00000060: 0ca2 73bc 40c7 bfbe 582a 96be ebef 6bbd
00000070: 3c04 8abe 8ec4 49be c09d 88be a109 a2be
00000080: a37c 5abe ec97 74be d132 dfbd 59b9 97be
00000090: 8a6c b6be f52c 13be 62ae 82be a263 67bd
000000a0: 9bda 9fbe e823 8ebe f775 09bf 1cc3 85be
000000b0: febf f4bd 14a2 cdbe dd45 11be eb53 b6be
000000c0: 91ae da3c c2f4 d8be dd13 1fbe da6b 4fbe
000000d0: b3eb 7abe fcde 8abe b701 29be 6759 6ebe
000000e0: 8434 93be e571 91bd be8e afbe 6a47 41be
000000f0: 83a8 65bd c00d 99be 780c a3be 33b4 83be
00000100: e14f eebe ebac afbe 454d 8d3d 0ef0 0fbe
00000110: cd22 8f3c 2ea6 12be 1914 b8be e7ce 28bd
00000120: 5c48 6bbe 50b3 b3be 56a1 3cbd f0e7 debe
00000130: 86a3 95be 8a5b f5bc d6dd c3bd 3ea2 90be
00000140: 53b1 b1be e303 febe 7cba 90be 129e f7be
00000150: 8fc1 003d 19d7 febe ded5 88be e5c8 c4bd
00000160: f373 bcbe a718 3abd 1541 0cbe ff6f 4ebe
00000170: b3a8 8abe 583d 32be f29a d8be 188f b33d
00000180: 69e5 78bd 1a37 8abe 92e1 44be 0c34 93be
00000190: 82ba 96be e0e2 cdbd f2c9 3fbe 8ee6 d0be
000001a0: 2282 15be e6b1 e2be 33f5 15bc 52e5 b8be
000001b0: 9043 afbe e525 f2bb 6479 95bc 4447 81be
000001c0: 5306 a5be 7fc3 343d ac38 20be 3d79 97bd
000001d0: 5ca8 d5bb 6bd8 e9be b661 20bc fe57 5dbd
000001e0: f41e 9cbd 7665 d8bc b707 89bc 4542 e8bd
000001f0: e0de 97be ea97 dabe 690e a4bc 7823 d8be

bn2.weight f4 [128]
0.51609194 0.726343 0.7870258 0.63802516 0.8359133 0.3620928 0.5883644 0.65303665
0.66140294 0.8289113 0.82359797 0.7941489 0.549991 0.59566945 0.74174047 0.88442576
0.56677866 1.0183569 0.43065605 0.6044828 0.61841327 0.67427427 0.7294422 0.7380033
0.8369574 0.42397162 0.7618548 0.8815257 0.71898425 0.81785417 0.7755114 0.5990151
0.75884646 0.54471177 0.878534 0.78637385 0.5373415 0.8899307 0.6637752 0.85080963
0.5382883 0.6782469 0.5795798 0.8325582 0.8630021 0.6524614 0.7151357 0.73974055
0.8124626 0.64659476 0.80762726 0.6379549 0.75926095 0.7147572 0.89107263 0.79512
0.72092617 0.91856956 0.75557643 0.75554633 0.7979366 1.0038023 0.47114375 0.7934859
0.6396347 0.43351135 0.90025973 0.7840629 0.9231096 0.8840088 0.29726663 0.83423686
0.45203564 0.53881454 0.8597298 0.5561412 0.5396642 0.8511221 0.84878916 0.555571
0.64193094 0.6011411 0.67283815 0.6673547 0.8462363 0.54902554 0.77890265 0.8095365
0.5556124 0.86018366 0.37568396 0.6914575 0.7992707 0.72406644 0.5589852 0.5667887
0.8016955 0.6566961 0.8310508 0.70395523 0.65095973 0.9123838 0.7370059 0.6856401
0.9753189 0.66710055 0.6930012 0.4851703 0.6589563 0.4263864 0.81029874 0.82393575
0.6099387 0.85625625 0.7495207 0.7997983 0.8508883 0.516816 0.65427023 0.7927974
0.7606474 0.8274137 0.69561523 0.84812176 0.5272389 0.643222 0.7057088 0.49791846
00000000: 9a1e 043f 9df1 393f 867a 493f 9e55 233f
00000010: 6afe 553f 3a64 b93e 0d9f 163f 692d 273f
00000020: b451 293f 8833 543f 51d7 523f 584d 4b3f
00000030: 36cc 0c3f cb7d 183f b4e2 3d3f ba69 623f
00000040: 6818 113f 8559 823f f37e dc3e 63bf 1a3f
00000050: 5550 1e3f 3d9d 2c3f b9bc 3a3f c9ed 3c3f
00000060: d742 563f cf12 d93e eb08 433f abab 613f
00000070: 5a0f 383f e45e 513f ea87 463f 0e59 193f
00000080: c343 423f 3b72 0b3f 9be7 603f cc4f 493f
00000090: 368f 093f 80d2 633f 2ced 293f a9ce 593f
000000a0: 43cd 093f 97a1 2d3f 575f 143f 8922 553f
000000b0: b5ed 5c3f b607 273f 2213 373f a35f 3d3f
000000c0: 8dfd 4f3f 3c87 253f a9c0 4e3f 0351 233f
000000d0: ed5e 423f 54fa 363f 561d 643f fc8c 4b3f
000000e0: 9e8e 383f 6027 6b3f 756d 413f 7c6b 413f
000000f0: 9345 4c3f 987c 803f c139 f13e e421 4b3f
00000100: 1abf 233f 33f5 dd3e 6c77 663f 59b8 483f
00000110: e950 6c3f 674e 623f 5533 983e 8c90 553f
00000120: 3771 e73e c0ef 093f 4117 5c3f 455f 0e3f
00000130: 6f27 0a3f 23e3 593f 3f4a 593f e739 0e3f
00000140: 9655 243f 62e4 193f 1f3f 2c3f c2d7 2a3f
00000150: f1a2 583f f08c 0c3f 2a66 473f c93d 4f3f
00000160: 9d3c 0e3f ff34 5c3f a659 c03e 5c03 313f
00000170: 019d 4c3f 6b5c 393f a719 0f3f 1019 113f
00000180: eb3b 4d3f 3c1d 283f bfbf 543f 6936 343f
00000190: 4ca5 263f fc91 693f 6bac 3c3f 1c86 2f3f
000001a0: 80ae 793f 1ac7 2a3f 8768 313f 3e68 f83e
000001b0: 5cb1 283f 514f da3e bd6f 4f3f 74ed 523f
000001c0: f124 1c3f 9c33 5b3f 97e0 3f3f 95bf 4c3f
000001d0: d1d3 593f 0e4e 043f 417e 273f c5f4 4a3f
000001e0: cab9 423f 62d1 533f d713 323f 821e 593f
000001f0: 21f9 063f 32aa 243f 55a9 343f 2bef fe3e

bn2.bias f4 [128]
-0.0018867864 -0.25472796 -0.25083703 -0.31785783 -0.21714404 -0.3294309 -0.4575821 -0.32350576
-0.31360906 -0.24597652 -0.18760066 -0.15889426 -0.49728566 -0.35212773 -0.09168385 -0.01107538
-0.50893974 0.008269794 0.13730766 -0.33474585 -0.3066715 -0.30795056 -0.3258702 -0.25904968
-0.011861595 -0.38825196 -0.32004485 -0.04756917 -0.28218254 -0.22199728 -0.24815707 -0.26879418
-0.24307922 -0.3547913 0.024165345 -0.21368356 -0.45204648 -0.24608676 -0.27574617 -0.21856573
-0.477391 -0.30037132 -0.40137652 -0.20844084 -0.08635212 -0.29663548 -0.26634356 -0.25772184
-0.056997474 -0.26205698 -0.20376158 -0.3318445 -0.26365498 -0.29601964 -0.13923779 -0.27290425
-0.22886463 0.012265319 -0.33200023 -0.24061061 -0.21862678 -0.17929284 -0.45842934 -0.22432522
-0.3244389 -0.25968978 0.0065281643 -0.262803 -0.055989623 -0.07436719 -0.33806542 -0.17143103
-0.30075583 -0.2649092 -0.07250091 -0.51794714 -0.26561475 -0.020992983 -0.028720034 -0.4469248
-0.32654768 -0.43559667 -0.15414421 -0.34794718 -0.009449477 -0.4772833 -0.25541544 -0.04038702
-0.48682508 -0.13148087 -0.18976292 -0.16080311 -0.2442184 -0.08652675 -0.5036159 0.025493585
-0.11099024 -0.2102028 -0.19164777 -0.310615 -0.25714386 -0.1409675 -0.31299323 -0.29351473
-0.010328184 -0.31929666 0.002088213 -0.38227978 -0.32094917 0.041568037 -0.20225826 -0.16926053
-0.3118332 -0.052406583 -0.04299641 -0.031504862 -0.07343102 -0.30687943 -0.02964398 -0.03837177
-0.22318047 -0.072223715 -0.110984765 -0.22356185 -0.44729775 -0.25431922 -0.24768066 -0.4222173
00000000: 0c4e f7ba b46b 82be b66d 80be 43be a2be
00000010: 025b 5ebe 2bab a8be 3348 eabe 8ca2 a5be
00000020: 5e91 a0be 45e1 7bbe 631a 40be 2db5 22be
00000030: 3a9c febe 164a b4be bec4 bbbd 8375 35bc
00000040: e049 02bf 087e 073c 619a 0c3e cf63 abbe
00000050: 0c04 9dbe b2ab 9dbe 75d8 a6be 29a2 84be
00000060: 2357 42bc f6c8 c6be ebdc a3be e4d7 42bd
00000070: 3b7a 90be 4153 63be e31c 7ebe 649f 89be
00000080: c2e9 78be 35a7 b5be 67f6 c53c ddcf 5abe
00000090: a372 e7be 2bfe 7bbe 9a2e 8dbe b2cf 5fbe
000000a0: 986c f4be 45ca 99be 3981 cdbe 8471 55be
000000b0: 61d9 b0bd 9be0 97be 2f5e 88be 1ef4 83be
000000c0: 2f76 69bd 552c 86be e0a6 50be 86e7 a9be
000000d0: c9fd 86be e38f 97be 5a94 0ebe 1bba 8bbe
000000e0: 7d5b 6abe 7af4 483c effb a9be a162 76be
000000f0: b3df 5fbe 8b98 37be 40b7 eabe 83b5 65be
00000100: db1c a6be 0ff6 84be 36ea d53b 1d8e 86be
00000110: 6055 65bd d34d 98bd e916 adbe 9e8b 2fbe
00000120: abfc 99be 2ea2 87be 5b7b 94bd 2f98 04bf
00000130: a8fe 87be 7af9 abbc 4746 ebbc 54d3 e4be
00000140: 4231 a7be 8706 dfbe fbd7 1dbe 2226 b2be
00000150: fbd1 1abc 7a5e f4be d0c5 82be dc6c 25bd
00000160: 2341 f9be eca2 06be 3651 42be 92a9 24be
00000170: 6314 7abe f034 b1bd f9ec 00bf ecd7 d03c
00000180: da4e e3bd 673f 57be 503f 44be ee08 9fbe
00000190: 5ca8 83be c959 10be a640 a0be 9047 96be
000001a0: 8b37 29bc da7a a3be 67da 083b 2dba c3be
000001b0: 7353 a4be 3f43 2a3d ca1c 4fbe a252 2dbe
000001c0: 9aa8 9fbe 49a8 56bd 011d 30bd 3e0b 01bd
000001d0: 0163 96bd 4d1f 9dbe efd7 f2bc b82b 1dbd
000001e0: 6c89 64be 07ea 93bd fb4b e3bd 66ed 64be
000001f0: 3604 e5be 2136 82be 00a0 7dbe de2c d8be

bn2.running_mean f4 [128]
0.15833132 -0.7646938 -0.68647146 -1.1811856 -0.553102 -1.2508852 -1.4367797 -1.0481739
-1.4080813 -0.56636757 -0.55858994 -0.51349187 -1.4922854 -1.4039177 0.49382576 0.7185003
-1.4909682 1.0145421 -1.4515439 -1.2635815 -0.9248093 -1.003891 -0.651382 -0.8122271
1.047262 -1.4883136 -0.7959902 0.82094824 -0.90279144 -0.531941 -1.0928783 -1.007105
-0.833283 -1.260715 1.6904113 -0.8495136 -1.1644739 -0.46226266 -1.0915143 -0.54606915
-1.1968719 -1.1784452 -1.1608782 -0.60817605 0.12701683 -1.1788596 -0.6596316 -1.0441998
0.15675259 -1.22754 -0.48730427 -0.9422434 -0.91317916 -0.8681619 -0.22216949 -0.75808346
-0.92218584 0.49800906 -0.8272976 -0.6086924 -0.39105806 -0.8273916 -1.237767 -0.83695924
-1.217216 -1.3324383 0.7352106 -0.7535416 0.778972 1.4321619 -1.5467765 -0.3046
-1.1421907 -1.2215787 0.08049646 -1.4707111 -0.89052975 0.5617878 0.27308887 -1.0025864
-1.0575867 -1.6119337 -0.64602053 -1.3299019 0.053413574 -1.5146168 -1.011665 0.0041727843
-1.3795013 -0.19662112 0.3148452 -0.55357665 -0.952624 0.30166066 -1.3613094 0.44968852
-0.25935853 -0.794628 -1.27728 -1.0184233 -1.1830668 1.7006955 -0.9792862 -0.8434439
1.6483033 -1.2304633 0.08667888 -1.3601723 -1.1808652 0.35233045 1.4740939 -0.6842238
-1.0671247 0.052166656 0.4158063 -0.04915125 -0.12414846 -1.177058 0.8393306 -0.019199442
-0.5661673 0.24027704 -0.32670018 -0.30888134 -1.1142522 -1.0460273 -0.15475759 -1.3073435
00000000: 9b21 223e f9c2 43bf 98bc 2fbf 1731 97bf
00000010: 1898 0dbf 021d a0bf 66e8 b7bf 902a 86bf
00000020: 023c b4bf 77fd 10bf c0ff 0ebf 3474 03bf
00000030: 3503 bfbf 93b3 b3bf bbd6 fc3e a3ef 373f
00000040: 0cd8 bebf 84dc 813f 31cc b9bf 0abd a1bf
00000050: 4dc0 6cbf 807f 80bf f9c0 26bf 1dee 4fbf
00000060: ae0c 863f 0f81 bebf 04c6 4bbf aa29 523f
00000070: 571d 67bf 492d 08bf 70e3 8bbf d1e8 80bf
00000080: 0952 55bf 1c5f a1bf 665f d83f b979 59bf
00000090: 7b0d 95bf b1ad ecbe beb6 8bbf 30cb 0bbf
000000a0: 1933 99bf 4bd7 96bf a897 94bf 6db1 1bbf
000000b0: b310 023e dfe4 96bf 9edd 28bf 57a8 85bf
000000c0: c083 203e 0820 9dbf f27f f9be dd36 71bf
000000d0: 1cc6 69bf dc3f 5ebf 6680 63be c211 42bf
000000e0: 5f14 6cbf 0bfb fe3e c7c9 53bf 44d3 1bbf
000000f0: c338 c8be f0cf 53bf 266f 9ebf f642 56bf
00000100: bccd 9bbf 578d aabf c336 3c3f 1ae8 40bf
00000110: b66a 473f 1551 b73f c6fc c5bf 88f4 9bbe
00000120: 4e33 92bf b15c 9cbf 54db a43d 4340 bcbf
00000130: c2f9 63bf 53d1 0f3f 4ed2 8b3e c054 80bf
00000140: 005f 87bf d853 cebf 9a61 25bf 3a3a aabf
00000150: 31c8 5a3d f7de c1bf 3d7e 81bf dabb 883b
00000160: 8093 b0bf 0c57 49be 6433 a13e 33b7 0dbf
00000170: 2bdf 73bf 4473 9a3e 633f aebf 933d e63e
00000180: a4ca 84be be6c 4bbf e97d a3bf b25b 82bf
00000190: bc6e 97bf 64b0 d93f 80b2 7abf f0eb 57bf
000001a0: 9afb d23f d27f 9dbf b284 b13d 201a aebf
000001b0: 9726 97bf a864 b43e 1caf bc3f 4a29 2fbf
000001c0: 8b97 88bf b4ac 553d 90e4 d43e d252 49bd
000001d0: 8c41 febd d6a9 96bf 5fde 563f 2648 9dbc
000001e0: 57f0 10bf 2f0b 763e 3f45 a7be b225 9ebe
000001f0: d19f 8ebf 39e4 85bf c678 1ebe 0857 a7bf

bn2.running_var f4 [128]
2.4843042 2.3728895 4.3876705 2.112668 2.7592597 1.0786406 0.8554822 1.5378295
2.1233597 0.9331062 3.5043893 2.4032524 0.75861084 2.0759585 2.8818955 2.1932664
0.7416725 3.8355243 1.6466702 1.295726 1.7221137 1.1548388 1.0605507 0.81204486
2.6137612 1.4091827 1.4788626 1.0841653 2.2990322 2.902153 4.6028266 2.3239949
2.8799021 2.2534797 1.1221577 2.7419128 0.50984776 4.0943284 3.2857924 2.3452232
0.7725634 3.6965773 0.5455924 3.470521 2.932378 2.1431308 2.9074197 2.9537687
2.386214 3.0643256 3.204604 1.6341413 2.7668614 1.8669677 3.1544008 2.2250147
3.0287411 3.6456928 0.94616 1.2832425 2.222751 3.931642 0.98760515 3.364932
1.709649 2.3403625 3.1770413 2.914028 4.122045 1.0900515 1.1194949 2.7497048
2.3158453 3.2415028 2.1766834 0.69843674 1.0985389 4.2103486 3.2202365 0.6961325
1.1859959 1.0389497 2.7056684 2.849098 2.8737483 1.2076172 2.9786444 2.3280811
0.72868985 3.9898565 3.555706 2.4636812 3.953882 2.4892156 0.6582953 3.521784
2.0328505 1.918866 0.70898485 2.6827261 4.004589 1.3851347 3.262533 0.5295985
0.9773058 1.8908031 3.4517465 1.613529 2.905344 2.9230554 0.9010597 3.104481
2.1708288 3.4049258 4.011751 2.9482696 2.42324 1.6324872 2.2648597 3.2845106
2.4793918 2.2317977 2.9142601 0.60024554 0.7345685 1.133643 0.58004344 0.6980085
00000000: d7fe 1e40 6cdd 1740 cc67 8c40 f435 0740
00000010: b697 3040 e510 8a3f e200 5b3f 99d7 c43f
00000020: 20e5 0740 0ce0 6e3f ea47 6040 e3ce 1940
00000030: 5234 423f 81dc 0440 fa70 3840 7a5e 0c40
00000040: 40de 3d3f 3b79 7540 17c6 d23f 59da a53f
00000050: 396e dc3f c2d1 933f 20c0 873f 2ce2 4f3f
00000060: dd47 2740 1960 b43f 5f4b bd3f eec5 8a3f
00000070: 5823 1340 e0bc 3940 5b4a 9340 55bc 1440
00000080: 5150 3840 0339 1040 dda2 8f3f 807b 2f40
00000090: 6285 023f bd04 8340 6c4a 5240 2318 1640
000000a0: b7c6 453f b994 6c40 f2ab 0b3f 041d 5e40
000000b0: 15ac 3b40 0e29 0940 2a13 3a40 8c0a 3d40
000000c0: bbb7 1840 e91d 4440 3b18 4d40 8b2b d13f
000000d0: 4214 3140 ccf8 ee3f b4e1 4940 a466 0e40
000000e0: e5d6 4140 0853 6940 8b37 723f 4a41 a43f
000000f0: 8d41 0e40 06a0 7b40 b1d3 7c3f 0c5b 5740
00000100: c7d5 da3f 80c8 1540 a554 4b40 6f7f 3a40
00000110: cbe7 8340 cf86 8b3f 9c4b 8f3f 2afb 2f40
00000120: cf36 1440 c874 4f40 c84e 0b40 c0cc 323f
00000130: ec9c 8c3f 2dbb 8640 5b18 4e40 bd35 323f
00000140: b7ce 973f 4efc 843f ac29 2d40 9f57 3640
00000150: 7eeb 3740 3393 9a3f 1ca2 3e40 48ff 1440
00000160: 6b8b 3a3f cf59 7f40 b090 6340 f4ac 1d40
00000170: 670c 7d40 4f4f 1f40 0a86 283f e964 6140
00000180: 391a 0240 679d f53f 0880 353f c9b1 2b40
00000190: 9825 8040 184c b13f 57cd 5040 c493 073f
000001a0: b730 7a3f d605 f23f 6ae9 5c40 1e88 ce3f
000001b0: 28f1 3940 5713 3b40 d9ab 663f d1af 4640
000001c0: dcee 0a40 4eea 5940 4460 8040 73b0 3c40
000001d0: 5d16 1b40 57f5 d03f 76f3 1040 6c35 5240
000001e0: 5bae 1e40 c6d5 0e40 3d83 3a40 b1a9 193f
000001f0: ae0c 3c3f 371b 913f ba7d 143f afb0 323f

conv3.weight f4 [256, 128, 1]
-0.42340794 -0.08788584 -0.21079431 -0.20963115 0.0669246 -0.6827182 -0.23861325 -0.34168965
-0.23075418 -0.017206946 -0.077090696 -0.24817051 -0.2927482 -0.26255673 -0.025540875 -0.0092945155
-0.3073991 0.046866246 -1.0639255 -0.08677541 -0.15484875 0.005807248 -0.0057769585 0.020175742
0.02398732 -0.55685514 0.0016025404 0.008979797 -0.09525738 -0.16436118 0.008647304 -0.5383825
-0.032212388 -0.31235498 -0.059147388 -0.012420388 -0.1468341 -0.10404231 -0.22497743 -0.023653453
-0.05291351 -0.1677752 -0.07298939 -0.14335024 0.01525219 -0.09812946 -0.10149574 -0.08790811
0.11748097 -0.07026123 -0.119544595 -0.11948828 -0.024642847 -0.0902778 -0.09965763 -0.022665761
-0.22557667 -0.10689375 -0.0682452 -0.05884104 -0.08869992 -0.16908666 -0.35031843 -0.040240232
-0.13213174 -0.76470065 -0.0023850964 0.053789668 0.01900671 -0.09879985 -0.43630338 -0.05408273
-1.0822304 -0.65142053 0.09282914 -0.3475131 -0.024986282 0.017146152 -0.05208145 -0.12312831
-0.13726561 -0.3293635 -0.2989384 -0.117911555 -0.1098786 -0.21814513 -0.115883425 0.035432253
-0.25716403 -0.11770454 -0.97880065 -0.3515604 -0.07017178 -0.088372104 -0.48584652 -0.003499725
-0.06722159 -0.292139 -0.427031 0.028833762 -0.21075734 -0.0055046612 -0.03585025 -0.15290612
-0.061678875 -0.22924338 -0.36834347 -0.4050533 -0.17054053 -0.26010674 0.015985701 -0.08685531
-0.2237626 -0.081277385 -0.13218783 -0.04517113 -0.14782827 -0.1579161 0.04767567 -0.08123337
-0.09266776 -0.039022688 -0.3072713 -0.010572553 -0.3630004 -0.22766234 0.022022117 -0.18307728
-0.0537194 0.038394734 -0.3132308 -0.056302108 -0.22912133 0.08228856 -0.09865585 -0.03246601
0.042253703 -0.110321 -0.26372972 0.07059154 0.05407495 -0.06521524 -0.058087867 0.045133963
0.032347675 0.08043208 -0.10363607 -0.096859634 0.0014830024 -0.09077755 -0.122690074 -0.07567425
-0.49541563 0.0030218451 -0.03161966 -0.11861597 -0.029193608 -0.37219962 -0.10699899 0.038258675
-0.13259764 -0.00463558 0.010657921 -0.32131466 -0.13203855 -0.3889837 -0.1008852 -0.031954117
0.010460657 -0.13258746 -0.015284495 -0.16984764 -0.020435449 -0.09851149 -0.23620403 -0.112379804
-0.24633001 -0.0743031 -0.26088017 -0.14681354 -0.14510442 -0.0518623 -0.5848557 -0.044345357
-0.047844794 -0.09370181 0.026774632 0.029645009 -0.1395817 -0.2902596 0.052071624 -0.14441489
-0.10286527 0.049705736 0.033653 -0.13626707 0.063804775 0.021929363 -0.06940816 -0.38605514
0.103043586 0.05318616 -0.11568153 -0.15356268 -0.11017163 -0.02228951 -0.03974019 -0.068136774
-0.03198545 -0.044714425 0.02380479 0.014024115 -0.06277217 -0.01686208 -0.083486184 -0.020384368
-0.062716894 -0.5594283 0.034695856 0.0867811 -0.32258824 0.09468068 -0.078476176 0.041938357
-0.089885615 -0.016142761 0.014847232 -0.12766573 -0.073046066 0.11395231 -0.14827906 -0.111484975
-0.028658176 0.003202079 -0.077946804 0.020074498 -0.061749607 0.019001743 0.049766507 -0.26198745
0.05585327 0.049293015 -0.06564802 -0.07580314 0.023043487 0.03690653 -0.52370036 -0.0319319
0.01460579 0.0067544924 0.03103042 -0.079460375 -0.11153835 -0.05507794 -0.04783977 -0.01896868
00000000: edc8 d8be 7efd b3bd 77da 57be 8ca9 56be
00000010: c40f 893d 9fc6 2ebf 0857 74be f2f1 aebe
00000020: d34a 6cbe 95f5 8cbc bae1 9dbd 6920 7ebe
00000030: 18e3 95be d66d 86be 193b d1bc 0648 18bc
00000040: 6a63 9dbe d2f6 3f3d b62e 88bf 4eb7 b1bd
00000050: ac90 1ebe ba4a be3b a44c bdbb 9947 a53c
00000060: 0e81 c43c 0f8e 0ebf 550c d23a 0020 133c
00000070: 4d16 c3bd 4c4e 28be 6cad 0d3c 6fd3 09bf
00000080: 23f1 03bd feec 9fbe 8844 72bd e27e 4bbc
00000090: ae5b 16be 2214 d5bd 7c60 66be e3c4 c1bc
000000a0: d6bb 58bd 43cd 2bbe 767b 95bd 68ca 12be
000000b0: 52e4 793c 19f8 c8bd 00dd cfbd 2b09 b4bd
000000c0: dd99 f03d 1fe5 8fbd ccd3 f4bd 45b6 f4bd
000000d0: ccdf c9bc 91e3 b8bd 4d19 ccbd 8cad b9bc
000000e0: 92fd 66be 1ceb dabd 24c4 8bbd 4d03 71bd
000000f0: 4ea8 b5bd 0e25 2dbe f05c b3be f1d2 24bd
00000100: 8b4d 07be 6cc3 43bf 474f 1cbb 8e52 5c3d
00000110: f6b3 9b3c 9357 cabd 2863 dfbe da85 5dbd
00000120: 8786 8abf 7fc3 26bf 341d be3d 3ded b1be
00000130: 08b0 ccbc 1676 8c3c 5c53 55bd b22a fcbd
00000140: 5b8f 0cbe 55a2 a8be 740e 99be 9d7b f1bd
00000150: 0808 e1bd 7061 5fbe 4a54 edbd 6921 113d
00000160: 01ab 83be 140f f1bd ae92 7abf baff b3be
00000170: 39b6 8fbd 6ffc b4bd e0c0 f8be a45b 65bb
00000180: 79ab 89bd 3e93 95be cfa3 dabe c834 ec3c
00000190: c6d0 57be 7260 b4bb b6d7 12bd 6c93 1cbe
000001a0: fda2 7cbd c7be 6abe 8497 bcbe 2563 cfbe
000001b0: 2da2 2ebe b62c 85be 72f4 823c 32e1 b1bd
000001c0: 0622 65be c274 a6bd 3f5c 07be 5d05 39bd
000001d0: 4b60 17be c2b4 21be 9047 433d ae5d a6bd
000001e0: 98c8 bdbd 41d6 1fbd aa52 9dbe 8038 2dbc
000001f0: 30db b9be 5120 69be ba67 b43c 9c78 3bbe
00000200: e008 5cbd cc43 1d3d ca5f a0be 0a9d 66bd
00000210: c89e 6abe e886 a83d 140c cabd 14fb 04bd
00000220: 3812 2d3d faef e1bd 9507 87be 4c92 903d
00000230: b27d 5d3d 918f 85bd 8bed 6dbd 64de 383d
00000240: ff7e 043d 93b9 a43d 263f d4bd 585e c6bd
00000250: 4e61 c23a 95e9 b9bd ef44 fbbd 1afb 9abd
00000260: 1ea7 fdbe 260a 463b 9e83 01bd eeec f2bd
00000270: 6f27 efbc f390 bebe 4922 dbbd 21b5 1c3d
00000280: adc7 07be 10e6 97bb 909e 2e3c 5b83 a4be
00000290: 1d35 07be df28 c7be e69c cebd 52e2 02bd
000002a0: 2d63 2b3c 02c5 07be d26b 7abc 8aec 2dbe
000002b0: 3e68 a7bc 64c0 c9bd 78df 71be 6227 e6bd
000002c0: ef3d 7cbe 392c 98bd 1692 85be 4a56 16be
000002d0: 4196 14be 906d 54bd 1ab9 15bf 7aa3 35bd
000002e0: e7f8 43bd bce6 bfbd 7956 db3c 17da f23c
000002f0: 81ee 0ebe e89c 94be 0e49 553d 7fe1 13be
00000300: 07ab d2bd 3e98 4b3d bad7 093d 9889 0bbe
00000310: 14ac 823d 35a5 b33c de25 8ebd 05a9 c5be
00000320: 8408 d33d bbd9 593d 70ea ecbd 893f 1dbe
00000330: aaa1 e1bd 7e98 b6bc 9cc6 22bd 4b8b 8bbd
00000340: 2d03 03bd 7926 37bd 4302 c33c 67c5 653c
00000350: b28e 80bd 5822 8abc cefa aabd 1efd a6bc
00000360: b771 80bd b136 0fbf 3e1d 0e3d 4aba b13d
00000370: 492a a5be f2e7 c13d 1eb8 a0bd 8ec7 2b3d
00000380: f315 b8bd d33d 84bc ce41 733c ceba 02be
00000390: 2d99 95bd d45f e93d 77d6 17be 3c52 e4bd
000003a0: 8dc4 eabc f9d9 513b 93a2 9fbd 4673 a43c
000003b0: 28ed 7cbd 8ba9 9b3c f7d7 4b3d 3823 86be
000003c0: 66c6 643d 79e7 493d 7872 86bd ad3e 9bbd
000003d0: b2c5 bc3c 4d2b 173d 3a11 06bf 06cb 02bd
000003e0: 204d 6f3c ca54 dd3b 8233 fe3c 1fbc a2bd
000003f0: 386e e4bd 6899 61bd a2f3 43bd 3564 9bbc

conv3.bias f4 [256]
-0.73454016 -0.26313552 -0.313412 -0.62546015 -0.45955342 -0.54642576 -0.30933908 -0.29322436
-0.071426034 -0.44057235 -0.6343503 -0.5456863 -0.4109287 -0.3698884 -0.15280642 -0.15118486
0.06046884 -0.2645228 -0.10305019 -0.03781778 -0.33420235 -0.7200877 -0.0362356 -0.44985786
-0.3768573 -0.45767492 -0.57108045 -0.9214346 -0.09185243 -0.40982354 -0.21496964 -0.49411902
-0.47252473 -0.39456216 -0.39445263 -0.15028685 -0.5069701 -0.28676173 -0.32233873 0.059272476
-0.24923101 -0.30461103 -0.11350945 -0.29967904 -0.5359464 -0.046230264 -0.29285717 -0.2999074
-0.36273006 -0.07548258 -0.34127313 -0.3447164 -0.35035288 -0.4425732 -0.33537108 -0.6194564
-0.41767374 -0.29897398 -0.16179627 -0.3794471 -0.17260562 -0.39921987 -0.24923463 -0.40489423
-0.26678562 -0.0717503 -0.39010412 -0.69039506 -0.32443053 -0.7635753 -0.28416732 -0.4884902
-0.13774589 -0.1641522 -0.35404065 -0.23366451 0.06494874 -0.1286572 -0.415622 -0.05398094
-0.5218405 -0.18870641 -0.46226284 -0.24382848 -0.69737446 -0.75001204 -0.40229338 -0.860922
-0.15277827 -0.3249882 -0.24967733 -0.17371102 -0.44189024 -0.17151593 -0.06206907 -0.3701904
-0.22495714 -0.015370772 -0.25698134 -0.15201211 -0.13793841 -0.28376967 -0.27749762 -0.17580566
-0.1898162 -0.018815182 -0.15394294 -0.24717946 -0.4820884 -0.06334064 -0.056317855 -0.14661257
-0.48503184 -0.510332 -0.2981501 -0.25232857 -0.25387785 -0.68729776 -0.41141322 -0.26589596
-0.15790433 -0.1958245 -0.35732162 -0.11135759 -0.34195408 -0.39422536 -0.35718238 -0.24531372
-0.19213729 -0.4733236 -0.12542768 -0.5074477 -0.5008701 -0.008595432 -0.30580938 -0.14631106
-0.20548795 -0.5535346 -0.33789194 -0.0828165 -0.5867036 -0.2903819 -0.117847115 0.02866424
-0.37541112 0.07521285 -0.8145103 -0.37956148 -0.43310097 -0.38049728 0.05044896 -0.6975089
-0.22814573 -0.28164962 -0.23852372 -0.01052364 -0.4943848 0.07397873 -0.47216436 -0.27286965
-0.21388778 -0.41362914 -0.19025993 -0.26776576 -0.52128583 -0.7597602 -0.65480155 -0.3380619
-0.14567457 -0.2993551 -0.64822704 -0.19243559 -0.02188225 -0.58831906 -0.29575154 -0.20695221
-0.42928424 -0.47931296 -0.053888842 -0.31927213 -0.3206213 -0.20831193 -0.039068907 -0.033691905
-0.11927926 -0.14671873 -0.6049952 -0.7776199 -0.13467641 -0.23262405 -0.46327072 -0.04995083
0.02169701 -0.15409903 -0.70921355 -0.24130283 -0.27077696 -0.25643292 -0.09071913 -0.4653152
-0.44420505 -0.3001441 -0.30772266 -0.29122224 -0.5211045 -0.37506095 -0.28977558 0.0011044311
-0.08156953 -0.20196512 -0.7858207 -0.33763114 -0.6994401 -0.33290812 -0.42621195 -0.22238956
-0.0786199 -0.50111866 -0.30921713 -0.18867983 -0.36214185 -0.23243295 -0.3643923 -0.17842788
-0.19136187 -0.18102439 -0.27790835 -0.44901213 -0.53823113 -0.7657459 -0.3946627 -0.36754948
-0.1633806 -0.4899329 -0.10981674 -0.5644212 -0.3266664 -0.8229943 0.017758913 -0.30581993
-0.1277316 -0.049882755 -0.16130416 -0.86657566 -0.27695793 -0.10230318 -0.031851996 -0.39905354
-0.30426243 -0.7533675 -0.104105674 -0.4273423 -0.024853984 -0.7098189 -0.11446055 -0.26998517
00000000: d30a 3cbf b3b9 86be 8a77 a0be 281e 20bf
00000010: 964a ebbe 8fe2 0bbf b161 9ebe 8121 96be
00000020: d047 92bd b392 e1be c864 22bf 19b2 0bbf
00000030: 3f65 d2be 0362 bdbe 4979 1cbe 34d0 1abe
00000040: 2dae 773d 886f 87be fa0b d3bd d1e6 1abd
00000050: 921c abbe ab57 38bf c86b 14bd c553 e6be
00000060: 71f3 c0be 5e54 eabe 5432 12bf 23e3 6bbf
00000070: 201d bcbd 64d4 d1be 0021 5cbe 2bfd fcbe
00000080: c3ee f1be 0d04 cabe b2f5 c9be cce4 19be
00000090: cbc8 01bf 6fd2 92be 9509 a5be b2c7 723d
000000a0: 6a36 7fbe faf5 9bbe a477 e8bd 886f 99be
000000b0: c933 09bf f25b 3dbd 60f1 95be 768d 99be
000000c0: c1b7 b9be 9c96 9abd 5abb aebe ab7e b0be
000000d0: 7461 b3be f498 e2be c2b5 abbe b294 1ebf
000000e0: 55d9 d5be 1e13 99be ecad 25be e446 c2be
000000f0: 87bf 30be 8c66 ccbe 5d37 7fbe 4c4e cfbe
00000100: 2098 88be d2f1 92bd babb c7be bbbd 30bf
00000110: c21b a6be ac79 43bf 617e 91be 631b fabe
00000120: 420d 0dbe 8417 28be d144 b5be c045 6fbe
00000130: d803 853d b7be 03be 68cc d4be 1e1b 5dbd
00000140: 5797 05bf 413c 41be b7ad ecbe 2cae 79be
00000150: 2287 32bf ca00 40bf 66f9 cdbe 6265 5cbf
00000160: e871 1cbe da64 a6be 6aab 7fbe 4de1 31be
00000170: 703f e2be dfa1 2fbe 233c 7ebd 9989 bdbe
00000180: 2a5b 66be b1d5 7bbc 0f93 83be 10a9 1bbe
00000190: ba3f 0dbe 424a 91be 2b14 8ebe 6606 34be
000001a0: 2e5f 42be 4c22 9abc 38a3 1dbe 9d1c 7dbe
000001b0: 4ad4 f6be bdb8 81bd 8dad 66bd 9b21 16be
000001c0: 1856 f8be 1ea5 02bf 21a7 98be 3631 81be
000001d0: 47fc 81be bff2 2fbf c1a4 d2be 8423 88be
000001e0: acb1 21be 3886 48be dcf2 b6be 730f e4bd
000001f0: 9b14 afbe e8d7 c9be 9ce0 b6be 8533 7bbe
00000200: a3bf 44be 7957 f2be 1d70 00be 18e8 01bf
00000210: 0639 00bf dbd3 0cbc 0c93 9cbe 91d2 15be
00000220: 6f6b 52be 72b4 0dbf 2c00 adbe b29b a9bd
00000230: 3532 16bf f0ac 94be d459 f1bd 45d1 ea3c
00000240: e335 c0be 3209 9a3d bf83 50bf e255 c2be
00000250: 69bf ddbe 8ad0 c2be 92a3 4e3d f18f 32bf
00000260: 099f 69be 6134 90be 903f 74be 586b 2cbc
00000270: 0120 fdbe 2982 973d 87bf f1be 92b5 8bbe
00000280: 6605 5bbe 33c7 d3be 80d3 42be 9818 89be
00000290: fd72 05bf a57f 42bf 13a1 27bf 7316 adbe
000002a0: b72b 15be 1245 99be 35f2 25bf d60d 45be
000002b0: 6842 b3bc 149c 16bf bf6c 97be 48eb 53be
000002c0: 25cb dbbe 8268 f5be 8cba 5cbd a377 a3be
000002d0: 7a28 a4be b94f 55be b806 20bd 8600 0abd
000002e0: af48 f4bd 6f3d 16be f7e0 1abf 1912 47bf
000002f0: 9de8 09be 0035 6ebe d231 edbe 3e99 4cbd
00000300: eebd b13c 23cc 1dbe 058f 35bf 1718 77be
00000310: 47a3 8abe 2d4b 83be f4ca b9bd cb3d eebe
00000320: d86e e3be 7dac 99be d38d 9dbe 151b 95be
00000330: 1b67 05bf fd07 c0be 775d 94be 8fc2 903a
00000340: ed0d a7bd f2cf 4ebe 8c2b 49bf fddd acbe
00000350: 820e 33bf ef72 aabe 7438 dabe 17ba 63be
00000360: 7803 a1bd 5049 00bf b551 9ebe 4935 41be
00000370: a86a b9be e702 6ebe a191 babe ccb5 36be
00000380: 5ef4 43be 755e 39be 014a 8ebe ebe4 e5be
00000390: 84c9 09bf ec07 44bf 3b11 cabe 722f bcbe
000003a0: 3e4d 27be 7cd8 fabe 99e7 e0bd e87d 10bf
000003b0: d240 a7be c1af 52bf 247b 913c 6e94 9cbe
000003c0: 13cc 02be dc51 4cbd eb2c 25be e7d7 5dbf
000003d0: 6ecd 8dbe 5484 d1bd 3d77 02bd bf50 ccbe
000003e0: 49c8 9bbe b1dc 40bf 5b35 d5bd 9ccc dabe
000003f0: 959a cbbc b1b6 35bf 4b6a eabd 7f3b 8abe
